ST Edge AI Core v2.2.0-20266 2adc00962
Created date          : 2026-07-04 02:09:28
Parameters            : generate --target stm32h7 --name bms_model -m C:/Users/22762/Desktop/BMS_Pro_Main/model/202607/PowerOnly_TCN_120min_NoAux_Huber_float32.tflite --compression none --verbosity 1 --workspace C:/Users/22762/AppData/Local/Temp/mxAI_workspace1443097268361003329887211120219373 --output C:/Users/22762/.stm32cubemx/network_output

Exec/report summary (generate)
--------------------------------------------------------------------------------------------------------------------------
model file         :   C:\Users\22762\Desktop\BMS_Pro_Main\model\202607\PowerOnly_TCN_120min_NoAux_Huber_float32.tflite   
type               :   tflite                                                                                             
c_name             :   bms_model                                                                                          
compression        :   none                                                                                               
options            :   allocate-inputs, allocate-outputs                                                                  
optimization       :   balanced                                                                                           
target/series      :   stm32h7                                                                                            
workspace dir      :   C:\Users\22762\AppData\Local\Temp\mxAI_workspace1443097268361003329887211120219373                 
output dir         :   C:\Users\22762\.stm32cubemx\network_output                                                         
model_fmt          :   float                                                                                              
model_name         :   PowerOnly_TCN_120min_NoAux_Huber_float32                                                           
model_hash         :   0xfc17ed6f46df86a6d5cb75b3d16b07a5                                                                 
params #           :   39,650 items (154.88 KiB)                                                                          
--------------------------------------------------------------------------------------------------------------------------
input 1/1          :   'serving_default_se..nce_input0', f32(1x120x1), 480 Bytes, activations                             
output 1/1         :   'gemm_222', f32(1x1), 4 Bytes, activations                                                         
macc               :   4,678,497                                                                                          
weights (ro)       :   157,460 B (153.77 KiB) (1 segment) / -1,140(-0.7%) vs float model                                  
activations (rw)   :   54,400 B (53.12 KiB) (1 segment) *                                                                 
ram (total)        :   54,400 B (53.12 KiB) = 54,400 + 0 + 0                                                              
--------------------------------------------------------------------------------------------------------------------------
(*) 'input'/'output' buffers are allocated in the activations buffer

Model name - PowerOnly_TCN_120min_NoAux_Huber_float32
------ ---------------------------------------------------- ---------------------- -------------- --------- -------------------------------- --- ------------------- ------------------- -------------------------------------- 
m_id   layer (type,original)                                oshape                 param/size          macc                     connected to   | c_size              c_macc              c_type                                 
------ ---------------------------------------------------- ---------------------- -------------- --------- -------------------------------- --- ------------------- ------------------- -------------------------------------- 
0      serving_default_se..nce_input0 (Input, )             [b:1,h:120,c:1]                                                                    |                                         Pad_[1]                                
       pad_0 (Pad, PAD)                                     [b:1,h:122,c:1]                                   serving_default_se..nce_input0   |                                         
------ ---------------------------------------------------- ---------------------- -------------- --------- -------------------------------- --- ------------------- ------------------- -------------------------------------- 
1      reshape_1 (Reshape, EXPAND_DIMS)                     [b:1,h:1,w:122,c:1]                                                        pad_0   |                                         
------ ---------------------------------------------------- ---------------------- -------------- --------- -------------------------------- --- ------------------- ------------------- -------------------------------------- 
2      conv2d_2 (Conv2D, CONV_2D)                           [b:1,h:1,w:120,c:32]   128/512           11,552                        reshape_1   |                                         Conv2D_[2]                             
------ ---------------------------------------------------- ---------------------- -------------- --------- -------------------------------- --- ------------------- ------------------- -------------------------------------- 
3      reshape_3 (Reshape, RESHAPE)                         [b:1,h:120,c:32]                                                        conv2d_2   |                                         
------ ---------------------------------------------------- ---------------------- -------------- --------- -------------------------------- --- ------------------- ------------------- -------------------------------------- 
4      reduce_4 (Reduce, MEAN)                              [b:1,h:120,c:1]                           7,680                        reshape_3   | +8(+100.0%)         -3,600(-46.9%)      Reduce_/ScaleBias_[3, 4]               
------ ---------------------------------------------------- ---------------------- -------------- --------- -------------------------------- --- ------------------- ------------------- -------------------------------------- 
5      nl_5 (Nonlinearity, NEG)                             [b:1,h:120,c:1]                             120                         reduce_4   |                                         Nonlinearity_[11]                      
------ ---------------------------------------------------- ---------------------- -------------- --------- -------------------------------- --- ------------------- ------------------- -------------------------------------- 
6      eltwise_6 (Eltwise, SQUARED_DIFFERENCE)              [b:1,h:120,c:32]                         19,200                        reshape_3   |                                         Eltwise/squared_diff_[5]               
                                                                                                                                    reduce_4   | 
------ ---------------------------------------------------- ---------------------- -------------- --------- -------------------------------- --- ------------------- ------------------- -------------------------------------- 
7      reduce_7 (Reduce, MEAN)                              [b:1,h:120,c:1]                           7,680                        eltwise_6   |                     -7,680(-100.0%)     
------ ---------------------------------------------------- ---------------------- -------------- --------- -------------------------------- --- ------------------- ------------------- -------------------------------------- 
8      arith_constant21 (Placeholder, )                     []                     1/4                                                         | +4(+100.0%)         +4,080(+100.0%)     Reduce_/ScaleBias_[6, 7]               
       eltwise_8 (Eltwise, ADD)                             [b:1,h:120,c:1]                             120                         reduce_7   |                     -120(-100.0%)       
                                                                                                                            arith_constant21   | 
------ ---------------------------------------------------- ---------------------- -------------- --------- -------------------------------- --- ------------------- ------------------- -------------------------------------- 
9      nl_9 (Nonlinearity, RSQRT)                           [b:1,h:120,c:1]                           1,440                        eltwise_8   |                                         Nonlinearity_[8]                       
------ ---------------------------------------------------- ---------------------- -------------- --------- -------------------------------- --- ------------------- ------------------- -------------------------------------- 
10     functional_1_layer.._1_Reshape (Placeholder, )       [b:1,h:1,c:32]         32/128                                                      |                     +120(+100.0%)       Eltwise/mul_[9]                        
       eltwise_10 (Eltwise, MUL)                            [b:1,h:120,c:32]                            120                             nl_9   |                     -120(-100.0%)       
                                                                                                              functional_1_layer.._1_Reshape   | 
------ ---------------------------------------------------- ---------------------- -------------- --------- -------------------------------- --- ------------------- ------------------- -------------------------------------- 
11     eltwise_11 (Eltwise, MUL)                            [b:1,h:120,c:32]                            120                             nl_5   |                                         Eltwise/mul_[12]                       
                                                                                                                                  eltwise_10   | 
------ ---------------------------------------------------- ---------------------- -------------- --------- -------------------------------- --- ------------------- ------------------- -------------------------------------- 
12     functional_1_layer.._Reshape_1 (Placeholder, )       [b:1,h:1,c:32]         32/128                                                      | +128(+100.0%)       +7,680(+100.0%)     ScaleBias_[13]                         
       eltwise_12 (Eltwise, ADD)                            [b:1,h:120,c:32]                          3,840                       eltwise_11   |                     -3,840(-100.0%)     
                                                                                                              functional_1_layer.._Reshape_1   | 
------ ---------------------------------------------------- ---------------------- -------------- --------- -------------------------------- --- ------------------- ------------------- -------------------------------------- 
13     eltwise_13 (Eltwise, MUL)                            [b:1,h:120,c:32]                          3,840                        reshape_3   |                                         Eltwise/mul_[10]                       
                                                                                                                                  eltwise_10   | 
------ ---------------------------------------------------- ---------------------- -------------- --------- -------------------------------- --- ------------------- ------------------- -------------------------------------- 
14     eltwise_14 (Eltwise, ADD)                            [b:1,h:120,c:32]                          3,840                       eltwise_13   |                     +3,840(+100.0%)     Eltwise/add_/Nonlinearity_[14, 15]     
                                                                                                                                  eltwise_12   | 
       nl_14_nl (Nonlinearity, ADD)                         [b:1,h:120,c:32]                          3,840                       eltwise_14   |                     -3,840(-100.0%)     
------ ---------------------------------------------------- ---------------------- -------------- --------- -------------------------------- --- ------------------- ------------------- -------------------------------------- 
15     pad_15 (Pad, PAD)                                    [b:1,h:122,c:32]                                                        nl_14_nl   |                                         Pad_[16]                               
------ ---------------------------------------------------- ---------------------- -------------- --------- -------------------------------- --- ------------------- ------------------- -------------------------------------- 
16     reshape_16 (Reshape, EXPAND_DIMS)                    [b:1,h:1,w:122,c:32]                                                      pad_15   |                                         
------ ---------------------------------------------------- ---------------------- -------------- --------- -------------------------------- --- ------------------- ------------------- -------------------------------------- 
17     conv2d_17 (Conv2D, CONV_2D)                          [b:1,h:1,w:120,c:32]   3,104/12,416     368,672                       reshape_16   |                                         Conv2D_[17]                            
------ ---------------------------------------------------- ---------------------- -------------- --------- -------------------------------- --- ------------------- ------------------- -------------------------------------- 
18     reshape_18 (Reshape, RESHAPE)                        [b:1,h:120,c:32]                                                       conv2d_17   |                                         
------ ---------------------------------------------------- ---------------------- -------------- --------- -------------------------------- --- ------------------- ------------------- -------------------------------------- 
19     reduce_19 (Reduce, MEAN)                             [b:1,h:120,c:1]                           7,680                       reshape_18   | +8(+100.0%)         -3,600(-46.9%)      Reduce_/ScaleBias_[18, 19]             
------ ---------------------------------------------------- ---------------------- -------------- --------- -------------------------------- --- ------------------- ------------------- -------------------------------------- 
20     nl_20 (Nonlinearity, NEG)                            [b:1,h:120,c:1]                             120                        reduce_19   |                                         Nonlinearity_[26]                      
------ ---------------------------------------------------- ---------------------- -------------- --------- -------------------------------- --- ------------------- ------------------- -------------------------------------- 
21     eltwise_21 (Eltwise, SQUARED_DIFFERENCE)             [b:1,h:120,c:32]                         19,200                       reshape_18   |                                         Eltwise/squared_diff_[20]              
                                                                                                                                   reduce_19   | 
------ ---------------------------------------------------- ---------------------- -------------- --------- -------------------------------- --- ------------------- ------------------- -------------------------------------- 
22     reduce_22 (Reduce, MEAN)                             [b:1,h:120,c:1]                           7,680                       eltwise_21   |                     -7,680(-100.0%)     
------ ---------------------------------------------------- ---------------------- -------------- --------- -------------------------------- --- ------------------- ------------------- -------------------------------------- 
23     eltwise_23 (Eltwise, ADD)                            [b:1,h:120,c:1]                             120                        reduce_22   | +8(+100.0%)         +3,960(+3300.0%)    Reduce_/ScaleBias_[21, 22]             
                                                                                                                            arith_constant21   | 
------ ---------------------------------------------------- ---------------------- -------------- --------- -------------------------------- --- ------------------- ------------------- -------------------------------------- 
24     nl_24 (Nonlinearity, RSQRT)                          [b:1,h:120,c:1]                           1,440                       eltwise_23   |                                         Nonlinearity_[23]                      
------ ---------------------------------------------------- ---------------------- -------------- --------- -------------------------------- --- ------------------- ------------------- -------------------------------------- 
25     functional_1_layer.._2_Reshape (Placeholder, )       [b:1,h:1,c:32]         32/128                                                      |                     +120(+100.0%)       Eltwise/mul_[24]                       
       eltwise_25 (Eltwise, MUL)                            [b:1,h:120,c:32]                            120                            nl_24   |                     -120(-100.0%)       
                                                                                                              functional_1_layer.._2_Reshape   | 
------ ---------------------------------------------------- ---------------------- -------------- --------- -------------------------------- --- ------------------- ------------------- -------------------------------------- 
26     eltwise_26 (Eltwise, MUL)                            [b:1,h:120,c:32]                            120                            nl_20   |                                         Eltwise/mul_[27]                       
                                                                                                                                  eltwise_25   | 
------ ---------------------------------------------------- ---------------------- -------------- --------- -------------------------------- --- ------------------- ------------------- -------------------------------------- 
27     functional_1_layer.._Reshape_1 (Placeholder, )       [b:1,h:1,c:32]         32/128                                                      | +128(+100.0%)       +7,680(+100.0%)     ScaleBias_[28]                         
       eltwise_27 (Eltwise, ADD)                            [b:1,h:120,c:32]                          3,840                       eltwise_26   |                     -3,840(-100.0%)     
                                                                                                              functional_1_layer.._Reshape_1   | 
------ ---------------------------------------------------- ---------------------- -------------- --------- -------------------------------- --- ------------------- ------------------- -------------------------------------- 
28     eltwise_28 (Eltwise, MUL)                            [b:1,h:120,c:32]                          3,840                       reshape_18   |                                         Eltwise/mul_[25]                       
                                                                                                                                  eltwise_25   | 
------ ---------------------------------------------------- ---------------------- -------------- --------- -------------------------------- --- ------------------- ------------------- -------------------------------------- 
29     eltwise_29 (Eltwise, ADD)                            [b:1,h:120,c:32]                          3,840                       eltwise_28   |                                         Eltwise/add_[29]                       
                                                                                                                                  eltwise_27   | 
------ ---------------------------------------------------- ---------------------- -------------- --------- -------------------------------- --- ------------------- ------------------- -------------------------------------- 
30     reshape_30 (Reshape, EXPAND_DIMS)                    [b:1,h:1,w:120,c:1]                               serving_default_se..nce_input0   |                                         
------ ---------------------------------------------------- ---------------------- -------------- --------- -------------------------------- --- ------------------- ------------------- -------------------------------------- 
31     conv2d_31 (Conv2D, CONV_2D)                          [b:1,h:1,w:120,c:32]   64/256             3,872                       reshape_30   |                                         Conv2D_[0]                             
------ ---------------------------------------------------- ---------------------- -------------- --------- -------------------------------- --- ------------------- ------------------- -------------------------------------- 
32     reshape_32 (Reshape, RESHAPE)                        [b:1,h:120,c:32]                                                       conv2d_31   |                                         
------ ---------------------------------------------------- ---------------------- -------------- --------- -------------------------------- --- ------------------- ------------------- -------------------------------------- 
33     eltwise_33 (Eltwise, ADD)                            [b:1,h:120,c:32]                          3,840                       reshape_32   |                     +3,840(+100.0%)     Eltwise/add_/Nonlinearity_[30, 31]     
                                                                                                                                  eltwise_29   | 
       nl_33_nl (Nonlinearity, ADD)                         [b:1,h:120,c:32]                          3,840                       eltwise_33   |                     -3,840(-100.0%)     
------ ---------------------------------------------------- ---------------------- -------------- --------- -------------------------------- --- ------------------- ------------------- -------------------------------------- 
34     pad_34 (Pad, PAD)                                    [b:1,h:124,c:32]                                                        nl_33_nl   |                                         Pad_[32]                               
------ ---------------------------------------------------- ---------------------- -------------- --------- -------------------------------- --- ------------------- ------------------- -------------------------------------- 
35     spacetobatch_35 (SpaceToBatch, SPACE_TO_BATCH_ND)    [b:2,h:62,c:32]                                                           pad_34   |                                         
------ ---------------------------------------------------- ---------------------- -------------- --------- -------------------------------- --- ------------------- ------------------- -------------------------------------- 
36     reshape_36 (Reshape, EXPAND_DIMS)                    [b:2,h:1,w:62,c:32]                                              spacetobatch_35   |                                         
------ ---------------------------------------------------- ---------------------- -------------- --------- -------------------------------- --- ------------------- ------------------- -------------------------------------- 
37     conv2d_37 (Conv2D, CONV_2D)                          [b:2,h:1,w:60,c:32]    3,104/12,416     184,352                       reshape_36   | -12,416(-100.0%)    -184,352(-100.0%)   
------ ---------------------------------------------------- ---------------------- -------------- --------- -------------------------------- --- ------------------- ------------------- -------------------------------------- 
38     reshape_38 (Reshape, RESHAPE)                        [b:2,h:60,c:32]                                                        conv2d_37   |                                         
------ ---------------------------------------------------- ---------------------- -------------- --------- -------------------------------- --- ------------------- ------------------- -------------------------------------- 
39     batchtospace_39 (BatchToSpace, BATCH_TO_SPACE_ND)    [b:1,h:120,c:32]                                                      reshape_38   |                                         
------ ---------------------------------------------------- ---------------------- -------------- --------- -------------------------------- --- ------------------- ------------------- -------------------------------------- 
40     functional_1_conv1.._1_Squeeze (Placeholder, )       [b:32]                 32/128                                                      | +12,288(+9600.0%)   +368,672(+100.0%)   Conv2D_[33]                            
       eltwise_40 (Eltwise, ADD)                            [b:1,h:120,c:32]                          3,840                  batchtospace_39   |                     -3,840(-100.0%)     
                                                                                                              functional_1_conv1.._1_Squeeze   | 
------ ---------------------------------------------------- ---------------------- -------------- --------- -------------------------------- --- ------------------- ------------------- -------------------------------------- 
41     reduce_41 (Reduce, MEAN)                             [b:1,h:120,c:1]                           7,680                       eltwise_40   | +8(+100.0%)         -3,600(-46.9%)      Reduce_/ScaleBias_[34, 35]             
------ ---------------------------------------------------- ---------------------- -------------- --------- -------------------------------- --- ------------------- ------------------- -------------------------------------- 
42     nl_42 (Nonlinearity, NEG)                            [b:1,h:120,c:1]                             120                        reduce_41   |                                         Nonlinearity_[42]                      
------ ---------------------------------------------------- ---------------------- -------------- --------- -------------------------------- --- ------------------- ------------------- -------------------------------------- 
43     eltwise_43 (Eltwise, SQUARED_DIFFERENCE)             [b:1,h:120,c:32]                         19,200                       eltwise_40   |                                         Eltwise/squared_diff_[36]              
                                                                                                                                   reduce_41   | 
------ ---------------------------------------------------- ---------------------- -------------- --------- -------------------------------- --- ------------------- ------------------- -------------------------------------- 
44     reduce_44 (Reduce, MEAN)                             [b:1,h:120,c:1]                           7,680                       eltwise_43   |                     -7,680(-100.0%)     
------ ---------------------------------------------------- ---------------------- -------------- --------- -------------------------------- --- ------------------- ------------------- -------------------------------------- 
45     eltwise_45 (Eltwise, ADD)                            [b:1,h:120,c:1]                             120                        reduce_44   | +8(+100.0%)         +3,960(+3300.0%)    Reduce_/ScaleBias_[37, 38]             
                                                                                                                            arith_constant21   | 
------ ---------------------------------------------------- ---------------------- -------------- --------- -------------------------------- --- ------------------- ------------------- -------------------------------------- 
46     nl_46 (Nonlinearity, RSQRT)                          [b:1,h:120,c:1]                           1,440                       eltwise_45   |                                         Nonlinearity_[39]                      
------ ---------------------------------------------------- ---------------------- -------------- --------- -------------------------------- --- ------------------- ------------------- -------------------------------------- 
47     functional_1_layer.._1_Reshape (Placeholder, )       [b:1,h:1,c:32]         32/128                                                      |                     +120(+100.0%)       Eltwise/mul_[40]                       
       eltwise_47 (Eltwise, MUL)                            [b:1,h:120,c:32]                            120                            nl_46   |                     -120(-100.0%)       
                                                                                                              functional_1_layer.._1_Reshape   | 
------ ---------------------------------------------------- ---------------------- -------------- --------- -------------------------------- --- ------------------- ------------------- -------------------------------------- 
48     eltwise_48 (Eltwise, MUL)                            [b:1,h:120,c:32]                            120                            nl_42   |                                         Eltwise/mul_[43]                       
                                                                                                                                  eltwise_47   | 
------ ---------------------------------------------------- ---------------------- -------------- --------- -------------------------------- --- ------------------- ------------------- -------------------------------------- 
49     functional_1_layer.._Reshape_1 (Placeholder, )       [b:1,h:1,c:32]         32/128                                                      | +128(+100.0%)       +7,680(+100.0%)     ScaleBias_[44]                         
       eltwise_49 (Eltwise, ADD)                            [b:1,h:120,c:32]                          3,840                       eltwise_48   |                     -3,840(-100.0%)     
                                                                                                              functional_1_layer.._Reshape_1   | 
------ ---------------------------------------------------- ---------------------- -------------- --------- -------------------------------- --- ------------------- ------------------- -------------------------------------- 
50     eltwise_50 (Eltwise, MUL)                            [b:1,h:120,c:32]                          3,840                       eltwise_40   |                                         Eltwise/mul_[41]                       
                                                                                                                                  eltwise_47   | 
------ ---------------------------------------------------- ---------------------- -------------- --------- -------------------------------- --- ------------------- ------------------- -------------------------------------- 
51     eltwise_51 (Eltwise, ADD)                            [b:1,h:120,c:32]                          3,840                       eltwise_50   |                     +3,840(+100.0%)     Eltwise/add_/Nonlinearity_[45, 46]     
                                                                                                                                  eltwise_49   | 
       nl_51_nl (Nonlinearity, ADD)                         [b:1,h:120,c:32]                          3,840                       eltwise_51   |                     -3,840(-100.0%)     
------ ---------------------------------------------------- ---------------------- -------------- --------- -------------------------------- --- ------------------- ------------------- -------------------------------------- 
52     pad_52 (Pad, PAD)                                    [b:1,h:124,c:32]                                                        nl_51_nl   |                                         Pad_[47]                               
------ ---------------------------------------------------- ---------------------- -------------- --------- -------------------------------- --- ------------------- ------------------- -------------------------------------- 
53     spacetobatch_53 (SpaceToBatch, SPACE_TO_BATCH_ND)    [b:2,h:62,c:32]                                                           pad_52   |                                         
------ ---------------------------------------------------- ---------------------- -------------- --------- -------------------------------- --- ------------------- ------------------- -------------------------------------- 
54     reshape_54 (Reshape, EXPAND_DIMS)                    [b:2,h:1,w:62,c:32]                                              spacetobatch_53   |                                         
------ ---------------------------------------------------- ---------------------- -------------- --------- -------------------------------- --- ------------------- ------------------- -------------------------------------- 
55     conv2d_55 (Conv2D, CONV_2D)                          [b:2,h:1,w:60,c:32]    3,104/12,416     184,352                       reshape_54   | -12,416(-100.0%)    -184,352(-100.0%)   
------ ---------------------------------------------------- ---------------------- -------------- --------- -------------------------------- --- ------------------- ------------------- -------------------------------------- 
56     reshape_56 (Reshape, RESHAPE)                        [b:2,h:60,c:32]                                                        conv2d_55   |                                         
------ ---------------------------------------------------- ---------------------- -------------- --------- -------------------------------- --- ------------------- ------------------- -------------------------------------- 
57     batchtospace_57 (BatchToSpace, BATCH_TO_SPACE_ND)    [b:1,h:120,c:32]                                                      reshape_56   |                                         
------ ---------------------------------------------------- ---------------------- -------------- --------- -------------------------------- --- ------------------- ------------------- -------------------------------------- 
58     functional_1_conv1.._1_Squeeze (Placeholder, )       [b:32]                 32/128                                                      | +12,288(+9600.0%)   +368,672(+100.0%)   Conv2D_[48]                            
       eltwise_58 (Eltwise, ADD)                            [b:1,h:120,c:32]                          3,840                  batchtospace_57   |                     -3,840(-100.0%)     
                                                                                                              functional_1_conv1.._1_Squeeze   | 
------ ---------------------------------------------------- ---------------------- -------------- --------- -------------------------------- --- ------------------- ------------------- -------------------------------------- 
59     reduce_59 (Reduce, MEAN)                             [b:1,h:120,c:1]                           7,680                       eltwise_58   | +8(+100.0%)         -3,600(-46.9%)      Reduce_/ScaleBias_[49, 50]             
------ ---------------------------------------------------- ---------------------- -------------- --------- -------------------------------- --- ------------------- ------------------- -------------------------------------- 
60     nl_60 (Nonlinearity, NEG)                            [b:1,h:120,c:1]                             120                        reduce_59   |                                         Nonlinearity_[57]                      
------ ---------------------------------------------------- ---------------------- -------------- --------- -------------------------------- --- ------------------- ------------------- -------------------------------------- 
61     eltwise_61 (Eltwise, SQUARED_DIFFERENCE)             [b:1,h:120,c:32]                         19,200                       eltwise_58   |                                         Eltwise/squared_diff_[51]              
                                                                                                                                   reduce_59   | 
------ ---------------------------------------------------- ---------------------- -------------- --------- -------------------------------- --- ------------------- ------------------- -------------------------------------- 
62     reduce_62 (Reduce, MEAN)                             [b:1,h:120,c:1]                           7,680                       eltwise_61   |                     -7,680(-100.0%)     
------ ---------------------------------------------------- ---------------------- -------------- --------- -------------------------------- --- ------------------- ------------------- -------------------------------------- 
63     eltwise_63 (Eltwise, ADD)                            [b:1,h:120,c:1]                             120                        reduce_62   | +8(+100.0%)         +3,960(+3300.0%)    Reduce_/ScaleBias_[52, 53]             
                                                                                                                            arith_constant21   | 
------ ---------------------------------------------------- ---------------------- -------------- --------- -------------------------------- --- ------------------- ------------------- -------------------------------------- 
64     nl_64 (Nonlinearity, RSQRT)                          [b:1,h:120,c:1]                           1,440                       eltwise_63   |                                         Nonlinearity_[54]                      
------ ---------------------------------------------------- ---------------------- -------------- --------- -------------------------------- --- ------------------- ------------------- -------------------------------------- 
65     functional_1_layer.._1_Reshape (Placeholder, )       [b:1,h:1,c:32]         32/128                                                      |                     +120(+100.0%)       Eltwise/mul_[55]                       
       eltwise_65 (Eltwise, MUL)                            [b:1,h:120,c:32]                            120                            nl_64   |                     -120(-100.0%)       
                                                                                                              functional_1_layer.._1_Reshape   | 
------ ---------------------------------------------------- ---------------------- -------------- --------- -------------------------------- --- ------------------- ------------------- -------------------------------------- 
66     eltwise_66 (Eltwise, MUL)                            [b:1,h:120,c:32]                            120                            nl_60   |                                         Eltwise/mul_[58]                       
                                                                                                                                  eltwise_65   | 
------ ---------------------------------------------------- ---------------------- -------------- --------- -------------------------------- --- ------------------- ------------------- -------------------------------------- 
67     functional_1_layer.._Reshape_1 (Placeholder, )       [b:1,h:1,c:32]         32/128                                                      | +128(+100.0%)       +7,680(+100.0%)     ScaleBias_[59]                         
       eltwise_67 (Eltwise, ADD)                            [b:1,h:120,c:32]                          3,840                       eltwise_66   |                     -3,840(-100.0%)     
                                                                                                              functional_1_layer.._Reshape_1   | 
------ ---------------------------------------------------- ---------------------- -------------- --------- -------------------------------- --- ------------------- ------------------- -------------------------------------- 
68     eltwise_68 (Eltwise, MUL)                            [b:1,h:120,c:32]                          3,840                       eltwise_58   |                                         Eltwise/mul_[56]                       
                                                                                                                                  eltwise_65   | 
------ ---------------------------------------------------- ---------------------- -------------- --------- -------------------------------- --- ------------------- ------------------- -------------------------------------- 
69     eltwise_69 (Eltwise, ADD)                            [b:1,h:120,c:32]                          3,840                       eltwise_68   |                                         Eltwise/add_[60]                       
                                                                                                                                  eltwise_67   | 
------ ---------------------------------------------------- ---------------------- -------------- --------- -------------------------------- --- ------------------- ------------------- -------------------------------------- 
70     eltwise_70 (Eltwise, ADD)                            [b:1,h:120,c:32]                          3,840                         nl_33_nl   |                     +3,840(+100.0%)     Eltwise/add_/Nonlinearity_[61, 62]     
                                                                                                                                  eltwise_69   | 
       nl_70_nl (Nonlinearity, ADD)                         [b:1,h:120,c:32]                          3,840                       eltwise_70   |                     -3,840(-100.0%)     
------ ---------------------------------------------------- ---------------------- -------------- --------- -------------------------------- --- ------------------- ------------------- -------------------------------------- 
71     pad_71 (Pad, PAD)                                    [b:1,h:128,c:32]                                                        nl_70_nl   |                                         Pad_[63]                               
------ ---------------------------------------------------- ---------------------- -------------- --------- -------------------------------- --- ------------------- ------------------- -------------------------------------- 
72     spacetobatch_72 (SpaceToBatch, SPACE_TO_BATCH_ND)    [b:4,h:32,c:32]                                                           pad_71   |                                         
------ ---------------------------------------------------- ---------------------- -------------- --------- -------------------------------- --- ------------------- ------------------- -------------------------------------- 
73     reshape_73 (Reshape, EXPAND_DIMS)                    [b:4,h:1,w:32,c:32]                                              spacetobatch_72   |                                         
------ ---------------------------------------------------- ---------------------- -------------- --------- -------------------------------- --- ------------------- ------------------- -------------------------------------- 
74     conv2d_74 (Conv2D, CONV_2D)                          [b:4,h:1,w:30,c:32]    3,104/12,416      92,192                       reshape_73   | -12,416(-100.0%)    -92,192(-100.0%)    
------ ---------------------------------------------------- ---------------------- -------------- --------- -------------------------------- --- ------------------- ------------------- -------------------------------------- 
75     reshape_75 (Reshape, RESHAPE)                        [b:4,h:30,c:32]                                                        conv2d_74   |                                         
------ ---------------------------------------------------- ---------------------- -------------- --------- -------------------------------- --- ------------------- ------------------- -------------------------------------- 
76     batchtospace_76 (BatchToSpace, BATCH_TO_SPACE_ND)    [b:1,h:120,c:32]                                                      reshape_75   |                                         
------ ---------------------------------------------------- ---------------------- -------------- --------- -------------------------------- --- ------------------- ------------------- -------------------------------------- 
77     functional_1_conv1.._1_Squeeze (Placeholder, )       [b:32]                 32/128                                                      | +12,288(+9600.0%)   +368,672(+100.0%)   Conv2D_[64]                            
       eltwise_77 (Eltwise, ADD)                            [b:1,h:120,c:32]                          3,840                  batchtospace_76   |                     -3,840(-100.0%)     
                                                                                                              functional_1_conv1.._1_Squeeze   | 
------ ---------------------------------------------------- ---------------------- -------------- --------- -------------------------------- --- ------------------- ------------------- -------------------------------------- 
78     reduce_78 (Reduce, MEAN)                             [b:1,h:120,c:1]                           7,680                       eltwise_77   | +8(+100.0%)         -3,600(-46.9%)      Reduce_/ScaleBias_[65, 66]             
------ ---------------------------------------------------- ---------------------- -------------- --------- -------------------------------- --- ------------------- ------------------- -------------------------------------- 
79     nl_79 (Nonlinearity, NEG)                            [b:1,h:120,c:1]                             120                        reduce_78   |                                         Nonlinearity_[73]                      
------ ---------------------------------------------------- ---------------------- -------------- --------- -------------------------------- --- ------------------- ------------------- -------------------------------------- 
80     eltwise_80 (Eltwise, SQUARED_DIFFERENCE)             [b:1,h:120,c:32]                         19,200                       eltwise_77   |                                         Eltwise/squared_diff_[67]              
                                                                                                                                   reduce_78   | 
------ ---------------------------------------------------- ---------------------- -------------- --------- -------------------------------- --- ------------------- ------------------- -------------------------------------- 
81     reduce_81 (Reduce, MEAN)                             [b:1,h:120,c:1]                           7,680                       eltwise_80   |                     -7,680(-100.0%)     
------ ---------------------------------------------------- ---------------------- -------------- --------- -------------------------------- --- ------------------- ------------------- -------------------------------------- 
82     eltwise_82 (Eltwise, ADD)                            [b:1,h:120,c:1]                             120                        reduce_81   | +8(+100.0%)         +3,960(+3300.0%)    Reduce_/ScaleBias_[68, 69]             
                                                                                                                            arith_constant21   | 
------ ---------------------------------------------------- ---------------------- -------------- --------- -------------------------------- --- ------------------- ------------------- -------------------------------------- 
83     nl_83 (Nonlinearity, RSQRT)                          [b:1,h:120,c:1]                           1,440                       eltwise_82   |                                         Nonlinearity_[70]                      
------ ---------------------------------------------------- ---------------------- -------------- --------- -------------------------------- --- ------------------- ------------------- -------------------------------------- 
84     functional_1_layer.._1_Reshape (Placeholder, )       [b:1,h:1,c:32]         32/128                                                      |                     +120(+100.0%)       Eltwise/mul_[71]                       
       eltwise_84 (Eltwise, MUL)                            [b:1,h:120,c:32]                            120                            nl_83   |                     -120(-100.0%)       
                                                                                                              functional_1_layer.._1_Reshape   | 
------ ---------------------------------------------------- ---------------------- -------------- --------- -------------------------------- --- ------------------- ------------------- -------------------------------------- 
85     eltwise_85 (Eltwise, MUL)                            [b:1,h:120,c:32]                            120                            nl_79   |                                         Eltwise/mul_[74]                       
                                                                                                                                  eltwise_84   | 
------ ---------------------------------------------------- ---------------------- -------------- --------- -------------------------------- --- ------------------- ------------------- -------------------------------------- 
86     functional_1_layer.._Reshape_1 (Placeholder, )       [b:1,h:1,c:32]         32/128                                                      | +128(+100.0%)       +7,680(+100.0%)     ScaleBias_[75]                         
       eltwise_86 (Eltwise, ADD)                            [b:1,h:120,c:32]                          3,840                       eltwise_85   |                     -3,840(-100.0%)     
                                                                                                              functional_1_layer.._Reshape_1   | 
------ ---------------------------------------------------- ---------------------- -------------- --------- -------------------------------- --- ------------------- ------------------- -------------------------------------- 
87     eltwise_87 (Eltwise, MUL)                            [b:1,h:120,c:32]                          3,840                       eltwise_77   |                                         Eltwise/mul_[72]                       
                                                                                                                                  eltwise_84   | 
------ ---------------------------------------------------- ---------------------- -------------- --------- -------------------------------- --- ------------------- ------------------- -------------------------------------- 
88     eltwise_88 (Eltwise, ADD)                            [b:1,h:120,c:32]                          3,840                       eltwise_87   |                     +3,840(+100.0%)     Eltwise/add_/Nonlinearity_[76, 77]     
                                                                                                                                  eltwise_86   | 
       nl_88_nl (Nonlinearity, ADD)                         [b:1,h:120,c:32]                          3,840                       eltwise_88   |                     -3,840(-100.0%)     
------ ---------------------------------------------------- ---------------------- -------------- --------- -------------------------------- --- ------------------- ------------------- -------------------------------------- 
89     pad_89 (Pad, PAD)                                    [b:1,h:128,c:32]                                                        nl_88_nl   |                                         Pad_[78]                               
------ ---------------------------------------------------- ---------------------- -------------- --------- -------------------------------- --- ------------------- ------------------- -------------------------------------- 
90     spacetobatch_90 (SpaceToBatch, SPACE_TO_BATCH_ND)    [b:4,h:32,c:32]                                                           pad_89   |                                         
------ ---------------------------------------------------- ---------------------- -------------- --------- -------------------------------- --- ------------------- ------------------- -------------------------------------- 
91     reshape_91 (Reshape, EXPAND_DIMS)                    [b:4,h:1,w:32,c:32]                                              spacetobatch_90   |                                         
------ ---------------------------------------------------- ---------------------- -------------- --------- -------------------------------- --- ------------------- ------------------- -------------------------------------- 
92     conv2d_92 (Conv2D, CONV_2D)                          [b:4,h:1,w:30,c:32]    3,104/12,416      92,192                       reshape_91   | -12,416(-100.0%)    -92,192(-100.0%)    
------ ---------------------------------------------------- ---------------------- -------------- --------- -------------------------------- --- ------------------- ------------------- -------------------------------------- 
93     reshape_93 (Reshape, RESHAPE)                        [b:4,h:30,c:32]                                                        conv2d_92   |                                         
------ ---------------------------------------------------- ---------------------- -------------- --------- -------------------------------- --- ------------------- ------------------- -------------------------------------- 
94     batchtospace_94 (BatchToSpace, BATCH_TO_SPACE_ND)    [b:1,h:120,c:32]                                                      reshape_93   |                                         
------ ---------------------------------------------------- ---------------------- -------------- --------- -------------------------------- --- ------------------- ------------------- -------------------------------------- 
95     functional_1_conv1.._1_Squeeze (Placeholder, )       [b:32]                 32/128                                                      | +12,288(+9600.0%)   +368,672(+100.0%)   Conv2D_[79]                            
       eltwise_95 (Eltwise, ADD)                            [b:1,h:120,c:32]                          3,840                  batchtospace_94   |                     -3,840(-100.0%)     
                                                                                                              functional_1_conv1.._1_Squeeze   | 
------ ---------------------------------------------------- ---------------------- -------------- --------- -------------------------------- --- ------------------- ------------------- -------------------------------------- 
96     reduce_96 (Reduce, MEAN)                             [b:1,h:120,c:1]                           7,680                       eltwise_95   | +8(+100.0%)         -3,600(-46.9%)      Reduce_/ScaleBias_[80, 81]             
------ ---------------------------------------------------- ---------------------- -------------- --------- -------------------------------- --- ------------------- ------------------- -------------------------------------- 
97     nl_97 (Nonlinearity, NEG)                            [b:1,h:120,c:1]                             120                        reduce_96   |                                         Nonlinearity_[88]                      
------ ---------------------------------------------------- ---------------------- -------------- --------- -------------------------------- --- ------------------- ------------------- -------------------------------------- 
98     eltwise_98 (Eltwise, SQUARED_DIFFERENCE)             [b:1,h:120,c:32]                         19,200                       eltwise_95   |                                         Eltwise/squared_diff_[82]              
                                                                                                                                   reduce_96   | 
------ ---------------------------------------------------- ---------------------- -------------- --------- -------------------------------- --- ------------------- ------------------- -------------------------------------- 
99     reduce_99 (Reduce, MEAN)                             [b:1,h:120,c:1]                           7,680                       eltwise_98   |                     -7,680(-100.0%)     
------ ---------------------------------------------------- ---------------------- -------------- --------- -------------------------------- --- ------------------- ------------------- -------------------------------------- 
100    eltwise_100 (Eltwise, ADD)                           [b:1,h:120,c:1]                             120                        reduce_99   | +8(+100.0%)         +3,960(+3300.0%)    Reduce_/ScaleBias_[83, 84]             
                                                                                                                            arith_constant21   | 
------ ---------------------------------------------------- ---------------------- -------------- --------- -------------------------------- --- ------------------- ------------------- -------------------------------------- 
101    nl_101 (Nonlinearity, RSQRT)                         [b:1,h:120,c:1]                           1,440                      eltwise_100   |                                         Nonlinearity_[85]                      
------ ---------------------------------------------------- ---------------------- -------------- --------- -------------------------------- --- ------------------- ------------------- -------------------------------------- 
102    functional_1_layer.._1_Reshape (Placeholder, )       [b:1,h:1,c:32]         32/128                                                      |                     +120(+100.0%)       Eltwise/mul_[86]                       
       eltwise_102 (Eltwise, MUL)                           [b:1,h:120,c:32]                            120                           nl_101   |                     -120(-100.0%)       
                                                                                                              functional_1_layer.._1_Reshape   | 
------ ---------------------------------------------------- ---------------------- -------------- --------- -------------------------------- --- ------------------- ------------------- -------------------------------------- 
103    eltwise_103 (Eltwise, MUL)                           [b:1,h:120,c:32]                            120                            nl_97   |                                         Eltwise/mul_[89]                       
                                                                                                                                 eltwise_102   | 
------ ---------------------------------------------------- ---------------------- -------------- --------- -------------------------------- --- ------------------- ------------------- -------------------------------------- 
104    functional_1_layer.._Reshape_1 (Placeholder, )       [b:1,h:1,c:32]         32/128                                                      | +128(+100.0%)       +7,680(+100.0%)     ScaleBias_[90]                         
       eltwise_104 (Eltwise, ADD)                           [b:1,h:120,c:32]                          3,840                      eltwise_103   |                     -3,840(-100.0%)     
                                                                                                              functional_1_layer.._Reshape_1   | 
------ ---------------------------------------------------- ---------------------- -------------- --------- -------------------------------- --- ------------------- ------------------- -------------------------------------- 
105    eltwise_105 (Eltwise, MUL)                           [b:1,h:120,c:32]                          3,840                       eltwise_95   |                                         Eltwise/mul_[87]                       
                                                                                                                                 eltwise_102   | 
------ ---------------------------------------------------- ---------------------- -------------- --------- -------------------------------- --- ------------------- ------------------- -------------------------------------- 
106    eltwise_106 (Eltwise, ADD)                           [b:1,h:120,c:32]                          3,840                      eltwise_105   |                                         Eltwise/add_[91]                       
                                                                                                                                 eltwise_104   | 
------ ---------------------------------------------------- ---------------------- -------------- --------- -------------------------------- --- ------------------- ------------------- -------------------------------------- 
107    eltwise_107 (Eltwise, ADD)                           [b:1,h:120,c:32]                          3,840                         nl_70_nl   |                     +3,840(+100.0%)     Eltwise/add_/Nonlinearity_[92, 93]     
                                                                                                                                 eltwise_106   | 
       nl_107_nl (Nonlinearity, ADD)                        [b:1,h:120,c:32]                          3,840                      eltwise_107   |                     -3,840(-100.0%)     
------ ---------------------------------------------------- ---------------------- -------------- --------- -------------------------------- --- ------------------- ------------------- -------------------------------------- 
108    pad_108 (Pad, PAD)                                   [b:1,h:136,c:32]                                                       nl_107_nl   |                                         Pad_[94]                               
------ ---------------------------------------------------- ---------------------- -------------- --------- -------------------------------- --- ------------------- ------------------- -------------------------------------- 
109    spacetobatch_109 (SpaceToBatch, SPACE_TO_BATCH_ND)   [b:8,h:17,c:32]                                                          pad_108   |                                         
------ ---------------------------------------------------- ---------------------- -------------- --------- -------------------------------- --- ------------------- ------------------- -------------------------------------- 
110    reshape_110 (Reshape, EXPAND_DIMS)                   [b:8,h:1,w:17,c:32]                                             spacetobatch_109   |                                         
------ ---------------------------------------------------- ---------------------- -------------- --------- -------------------------------- --- ------------------- ------------------- -------------------------------------- 
111    conv2d_111 (Conv2D, CONV_2D)                         [b:8,h:1,w:15,c:32]    3,104/12,416      46,112                      reshape_110   | -12,416(-100.0%)    -46,112(-100.0%)    
------ ---------------------------------------------------- ---------------------- -------------- --------- -------------------------------- --- ------------------- ------------------- -------------------------------------- 
112    reshape_112 (Reshape, RESHAPE)                       [b:8,h:15,c:32]                                                       conv2d_111   |                                         
------ ---------------------------------------------------- ---------------------- -------------- --------- -------------------------------- --- ------------------- ------------------- -------------------------------------- 
113    batchtospace_113 (BatchToSpace, BATCH_TO_SPACE_ND)   [b:1,h:120,c:32]                                                     reshape_112   |                                         
------ ---------------------------------------------------- ---------------------- -------------- --------- -------------------------------- --- ------------------- ------------------- -------------------------------------- 
114    functional_1_conv1.._1_Squeeze (Placeholder, )       [b:32]                 32/128                                                      | +12,288(+9600.0%)   +368,672(+100.0%)   Conv2D_[95]                            
       eltwise_114 (Eltwise, ADD)                           [b:1,h:120,c:32]                          3,840                 batchtospace_113   |                     -3,840(-100.0%)     
                                                                                                              functional_1_conv1.._1_Squeeze   | 
------ ---------------------------------------------------- ---------------------- -------------- --------- -------------------------------- --- ------------------- ------------------- -------------------------------------- 
115    reduce_115 (Reduce, MEAN)                            [b:1,h:120,c:1]                           7,680                      eltwise_114   | +8(+100.0%)         -3,600(-46.9%)      Reduce_/ScaleBias_[96, 97]             
------ ---------------------------------------------------- ---------------------- -------------- --------- -------------------------------- --- ------------------- ------------------- -------------------------------------- 
116    nl_116 (Nonlinearity, NEG)                           [b:1,h:120,c:1]                             120                       reduce_115   |                                         Nonlinearity_[104]                     
------ ---------------------------------------------------- ---------------------- -------------- --------- -------------------------------- --- ------------------- ------------------- -------------------------------------- 
117    eltwise_117 (Eltwise, SQUARED_DIFFERENCE)            [b:1,h:120,c:32]                         19,200                      eltwise_114   |                                         Eltwise/squared_diff_[98]              
                                                                                                                                  reduce_115   | 
------ ---------------------------------------------------- ---------------------- -------------- --------- -------------------------------- --- ------------------- ------------------- -------------------------------------- 
118    reduce_118 (Reduce, MEAN)                            [b:1,h:120,c:1]                           7,680                      eltwise_117   |                     -7,680(-100.0%)     
------ ---------------------------------------------------- ---------------------- -------------- --------- -------------------------------- --- ------------------- ------------------- -------------------------------------- 
119    eltwise_119 (Eltwise, ADD)                           [b:1,h:120,c:1]                             120                       reduce_118   | +8(+100.0%)         +3,960(+3300.0%)    Reduce_/ScaleBias_[99, 100]            
                                                                                                                            arith_constant21   | 
------ ---------------------------------------------------- ---------------------- -------------- --------- -------------------------------- --- ------------------- ------------------- -------------------------------------- 
120    nl_120 (Nonlinearity, RSQRT)                         [b:1,h:120,c:1]                           1,440                      eltwise_119   |                                         Nonlinearity_[101]                     
------ ---------------------------------------------------- ---------------------- -------------- --------- -------------------------------- --- ------------------- ------------------- -------------------------------------- 
121    functional_1_layer.._1_Reshape (Placeholder, )       [b:1,h:1,c:32]         32/128                                                      |                     +120(+100.0%)       Eltwise/mul_[102]                      
       eltwise_121 (Eltwise, MUL)                           [b:1,h:120,c:32]                            120                           nl_120   |                     -120(-100.0%)       
                                                                                                              functional_1_layer.._1_Reshape   | 
------ ---------------------------------------------------- ---------------------- -------------- --------- -------------------------------- --- ------------------- ------------------- -------------------------------------- 
122    eltwise_122 (Eltwise, MUL)                           [b:1,h:120,c:32]                            120                           nl_116   |                                         Eltwise/mul_[105]                      
                                                                                                                                 eltwise_121   | 
------ ---------------------------------------------------- ---------------------- -------------- --------- -------------------------------- --- ------------------- ------------------- -------------------------------------- 
123    functional_1_layer.._Reshape_1 (Placeholder, )       [b:1,h:1,c:32]         32/128                                                      | +128(+100.0%)       +7,680(+100.0%)     ScaleBias_[106]                        
       eltwise_123 (Eltwise, ADD)                           [b:1,h:120,c:32]                          3,840                      eltwise_122   |                     -3,840(-100.0%)     
                                                                                                              functional_1_layer.._Reshape_1   | 
------ ---------------------------------------------------- ---------------------- -------------- --------- -------------------------------- --- ------------------- ------------------- -------------------------------------- 
124    eltwise_124 (Eltwise, MUL)                           [b:1,h:120,c:32]                          3,840                      eltwise_114   |                                         Eltwise/mul_[103]                      
                                                                                                                                 eltwise_121   | 
------ ---------------------------------------------------- ---------------------- -------------- --------- -------------------------------- --- ------------------- ------------------- -------------------------------------- 
125    eltwise_125 (Eltwise, ADD)                           [b:1,h:120,c:32]                          3,840                      eltwise_124   |                     +3,840(+100.0%)     Eltwise/add_/Nonlinearity_[107, 108]   
                                                                                                                                 eltwise_123   | 
       nl_125_nl (Nonlinearity, ADD)                        [b:1,h:120,c:32]                          3,840                      eltwise_125   |                     -3,840(-100.0%)     
------ ---------------------------------------------------- ---------------------- -------------- --------- -------------------------------- --- ------------------- ------------------- -------------------------------------- 
126    pad_126 (Pad, PAD)                                   [b:1,h:136,c:32]                                                       nl_125_nl   |                                         Pad_[109]                              
------ ---------------------------------------------------- ---------------------- -------------- --------- -------------------------------- --- ------------------- ------------------- -------------------------------------- 
127    spacetobatch_127 (SpaceToBatch, SPACE_TO_BATCH_ND)   [b:8,h:17,c:32]                                                          pad_126   |                                         
------ ---------------------------------------------------- ---------------------- -------------- --------- -------------------------------- --- ------------------- ------------------- -------------------------------------- 
128    reshape_128 (Reshape, EXPAND_DIMS)                   [b:8,h:1,w:17,c:32]                                             spacetobatch_127   |                                         
------ ---------------------------------------------------- ---------------------- -------------- --------- -------------------------------- --- ------------------- ------------------- -------------------------------------- 
129    conv2d_129 (Conv2D, CONV_2D)                         [b:8,h:1,w:15,c:32]    3,104/12,416      46,112                      reshape_128   | -12,416(-100.0%)    -46,112(-100.0%)    
------ ---------------------------------------------------- ---------------------- -------------- --------- -------------------------------- --- ------------------- ------------------- -------------------------------------- 
130    reshape_130 (Reshape, RESHAPE)                       [b:8,h:15,c:32]                                                       conv2d_129   |                                         
------ ---------------------------------------------------- ---------------------- -------------- --------- -------------------------------- --- ------------------- ------------------- -------------------------------------- 
131    batchtospace_131 (BatchToSpace, BATCH_TO_SPACE_ND)   [b:1,h:120,c:32]                                                     reshape_130   |                                         
------ ---------------------------------------------------- ---------------------- -------------- --------- -------------------------------- --- ------------------- ------------------- -------------------------------------- 
132    functional_1_conv1.._1_Squeeze (Placeholder, )       [b:32]                 32/128                                                      | +12,288(+9600.0%)   +368,672(+100.0%)   Conv2D_[110]                           
       eltwise_132 (Eltwise, ADD)                           [b:1,h:120,c:32]                          3,840                 batchtospace_131   |                     -3,840(-100.0%)     
                                                                                                              functional_1_conv1.._1_Squeeze   | 
------ ---------------------------------------------------- ---------------------- -------------- --------- -------------------------------- --- ------------------- ------------------- -------------------------------------- 
133    reduce_133 (Reduce, MEAN)                            [b:1,h:120,c:1]                           7,680                      eltwise_132   | +8(+100.0%)         -3,600(-46.9%)      Reduce_/ScaleBias_[111, 112]           
------ ---------------------------------------------------- ---------------------- -------------- --------- -------------------------------- --- ------------------- ------------------- -------------------------------------- 
134    nl_134 (Nonlinearity, NEG)                           [b:1,h:120,c:1]                             120                       reduce_133   |                                         Nonlinearity_[119]                     
------ ---------------------------------------------------- ---------------------- -------------- --------- -------------------------------- --- ------------------- ------------------- -------------------------------------- 
135    eltwise_135 (Eltwise, SQUARED_DIFFERENCE)            [b:1,h:120,c:32]                         19,200                      eltwise_132   |                                         Eltwise/squared_diff_[113]             
                                                                                                                                  reduce_133   | 
------ ---------------------------------------------------- ---------------------- -------------- --------- -------------------------------- --- ------------------- ------------------- -------------------------------------- 
136    reduce_136 (Reduce, MEAN)                            [b:1,h:120,c:1]                           7,680                      eltwise_135   |                     -7,680(-100.0%)     
------ ---------------------------------------------------- ---------------------- -------------- --------- -------------------------------- --- ------------------- ------------------- -------------------------------------- 
137    eltwise_137 (Eltwise, ADD)                           [b:1,h:120,c:1]                             120                       reduce_136   | +8(+100.0%)         +3,960(+3300.0%)    Reduce_/ScaleBias_[114, 115]           
                                                                                                                            arith_constant21   | 
------ ---------------------------------------------------- ---------------------- -------------- --------- -------------------------------- --- ------------------- ------------------- -------------------------------------- 
138    nl_138 (Nonlinearity, RSQRT)                         [b:1,h:120,c:1]                           1,440                      eltwise_137   |                                         Nonlinearity_[116]                     
------ ---------------------------------------------------- ---------------------- -------------- --------- -------------------------------- --- ------------------- ------------------- -------------------------------------- 
139    functional_1_layer.._1_Reshape (Placeholder, )       [b:1,h:1,c:32]         32/128                                                      |                     +120(+100.0%)       Eltwise/mul_[117]                      
       eltwise_139 (Eltwise, MUL)                           [b:1,h:120,c:32]                            120                           nl_138   |                     -120(-100.0%)       
                                                                                                              functional_1_layer.._1_Reshape   | 
------ ---------------------------------------------------- ---------------------- -------------- --------- -------------------------------- --- ------------------- ------------------- -------------------------------------- 
140    eltwise_140 (Eltwise, MUL)                           [b:1,h:120,c:32]                            120                           nl_134   |                                         Eltwise/mul_[120]                      
                                                                                                                                 eltwise_139   | 
------ ---------------------------------------------------- ---------------------- -------------- --------- -------------------------------- --- ------------------- ------------------- -------------------------------------- 
141    functional_1_layer.._Reshape_1 (Placeholder, )       [b:1,h:1,c:32]         32/128                                                      | +128(+100.0%)       +7,680(+100.0%)     ScaleBias_[121]                        
       eltwise_141 (Eltwise, ADD)                           [b:1,h:120,c:32]                          3,840                      eltwise_140   |                     -3,840(-100.0%)     
                                                                                                              functional_1_layer.._Reshape_1   | 
------ ---------------------------------------------------- ---------------------- -------------- --------- -------------------------------- --- ------------------- ------------------- -------------------------------------- 
142    eltwise_142 (Eltwise, MUL)                           [b:1,h:120,c:32]                          3,840                      eltwise_132   |                                         Eltwise/mul_[118]                      
                                                                                                                                 eltwise_139   | 
------ ---------------------------------------------------- ---------------------- -------------- --------- -------------------------------- --- ------------------- ------------------- -------------------------------------- 
143    eltwise_143 (Eltwise, ADD)                           [b:1,h:120,c:32]                          3,840                      eltwise_142   |                                         Eltwise/add_[122]                      
                                                                                                                                 eltwise_141   | 
------ ---------------------------------------------------- ---------------------- -------------- --------- -------------------------------- --- ------------------- ------------------- -------------------------------------- 
144    eltwise_144 (Eltwise, ADD)                           [b:1,h:120,c:32]                          3,840                        nl_107_nl   |                     +3,840(+100.0%)     Eltwise/add_/Nonlinearity_[123, 124]   
                                                                                                                                 eltwise_143   | 
       nl_144_nl (Nonlinearity, ADD)                        [b:1,h:120,c:32]                          3,840                      eltwise_144   |                     -3,840(-100.0%)     
------ ---------------------------------------------------- ---------------------- -------------- --------- -------------------------------- --- ------------------- ------------------- -------------------------------------- 
145    pad_145 (Pad, PAD)                                   [b:1,h:152,c:32]                                                       nl_144_nl   |                                         Pad_[125]                              
------ ---------------------------------------------------- ---------------------- -------------- --------- -------------------------------- --- ------------------- ------------------- -------------------------------------- 
146    spacetobatch_146 (SpaceToBatch, SPACE_TO_BATCH_ND)   [b:16,h:10,c:32]                                                         pad_145   |                                         
------ ---------------------------------------------------- ---------------------- -------------- --------- -------------------------------- --- ------------------- ------------------- -------------------------------------- 
147    reshape_147 (Reshape, EXPAND_DIMS)                   [b:16,h:1,w:10,c:32]                                            spacetobatch_146   |                                         
------ ---------------------------------------------------- ---------------------- -------------- --------- -------------------------------- --- ------------------- ------------------- -------------------------------------- 
148    conv2d_148 (Conv2D, CONV_2D)                         [b:16,h:1,w:8,c:32]    3,104/12,416      24,608                      reshape_147   | -12,416(-100.0%)    -24,608(-100.0%)    
------ ---------------------------------------------------- ---------------------- -------------- --------- -------------------------------- --- ------------------- ------------------- -------------------------------------- 
149    reshape_149 (Reshape, RESHAPE)                       [b:16,h:8,c:32]                                                       conv2d_148   |                                         
------ ---------------------------------------------------- ---------------------- -------------- --------- -------------------------------- --- ------------------- ------------------- -------------------------------------- 
150    batchtospace_150 (BatchToSpace, BATCH_TO_SPACE_ND)   [b:1,h:120,c:32]                                                     reshape_149   |                                         
------ ---------------------------------------------------- ---------------------- -------------- --------- -------------------------------- --- ------------------- ------------------- -------------------------------------- 
151    functional_1_conv1.._1_Squeeze (Placeholder, )       [b:32]                 32/128                                                      | +12,288(+9600.0%)   +368,672(+100.0%)   Conv2D_[126]                           
       eltwise_151 (Eltwise, ADD)                           [b:1,h:120,c:32]                          3,840                 batchtospace_150   |                     -3,840(-100.0%)     
                                                                                                              functional_1_conv1.._1_Squeeze   | 
------ ---------------------------------------------------- ---------------------- -------------- --------- -------------------------------- --- ------------------- ------------------- -------------------------------------- 
152    reduce_152 (Reduce, MEAN)                            [b:1,h:120,c:1]                           7,680                      eltwise_151   | +8(+100.0%)         -3,600(-46.9%)      Reduce_/ScaleBias_[127, 128]           
------ ---------------------------------------------------- ---------------------- -------------- --------- -------------------------------- --- ------------------- ------------------- -------------------------------------- 
153    nl_153 (Nonlinearity, NEG)                           [b:1,h:120,c:1]                             120                       reduce_152   |                                         Nonlinearity_[135]                     
------ ---------------------------------------------------- ---------------------- -------------- --------- -------------------------------- --- ------------------- ------------------- -------------------------------------- 
154    eltwise_154 (Eltwise, SQUARED_DIFFERENCE)            [b:1,h:120,c:32]                         19,200                      eltwise_151   |                                         Eltwise/squared_diff_[129]             
                                                                                                                                  reduce_152   | 
------ ---------------------------------------------------- ---------------------- -------------- --------- -------------------------------- --- ------------------- ------------------- -------------------------------------- 
155    reduce_155 (Reduce, MEAN)                            [b:1,h:120,c:1]                           7,680                      eltwise_154   |                     -7,680(-100.0%)     
------ ---------------------------------------------------- ---------------------- -------------- --------- -------------------------------- --- ------------------- ------------------- -------------------------------------- 
156    eltwise_156 (Eltwise, ADD)                           [b:1,h:120,c:1]                             120                       reduce_155   | +8(+100.0%)         +3,960(+3300.0%)    Reduce_/ScaleBias_[130, 131]           
                                                                                                                            arith_constant21   | 
------ ---------------------------------------------------- ---------------------- -------------- --------- -------------------------------- --- ------------------- ------------------- -------------------------------------- 
157    nl_157 (Nonlinearity, RSQRT)                         [b:1,h:120,c:1]                           1,440                      eltwise_156   |                                         Nonlinearity_[132]                     
------ ---------------------------------------------------- ---------------------- -------------- --------- -------------------------------- --- ------------------- ------------------- -------------------------------------- 
158    functional_1_layer.._1_Reshape (Placeholder, )       [b:1,h:1,c:32]         32/128                                                      |                     +120(+100.0%)       Eltwise/mul_[133]                      
       eltwise_158 (Eltwise, MUL)                           [b:1,h:120,c:32]                            120                           nl_157   |                     -120(-100.0%)       
                                                                                                              functional_1_layer.._1_Reshape   | 
------ ---------------------------------------------------- ---------------------- -------------- --------- -------------------------------- --- ------------------- ------------------- -------------------------------------- 
159    eltwise_159 (Eltwise, MUL)                           [b:1,h:120,c:32]                            120                           nl_153   |                                         Eltwise/mul_[136]                      
                                                                                                                                 eltwise_158   | 
------ ---------------------------------------------------- ---------------------- -------------- --------- -------------------------------- --- ------------------- ------------------- -------------------------------------- 
160    functional_1_layer.._Reshape_1 (Placeholder, )       [b:1,h:1,c:32]         32/128                                                      | +128(+100.0%)       +7,680(+100.0%)     ScaleBias_[137]                        
       eltwise_160 (Eltwise, ADD)                           [b:1,h:120,c:32]                          3,840                      eltwise_159   |                     -3,840(-100.0%)     
                                                                                                              functional_1_layer.._Reshape_1   | 
------ ---------------------------------------------------- ---------------------- -------------- --------- -------------------------------- --- ------------------- ------------------- -------------------------------------- 
161    eltwise_161 (Eltwise, MUL)                           [b:1,h:120,c:32]                          3,840                      eltwise_151   |                                         Eltwise/mul_[134]                      
                                                                                                                                 eltwise_158   | 
------ ---------------------------------------------------- ---------------------- -------------- --------- -------------------------------- --- ------------------- ------------------- -------------------------------------- 
162    eltwise_162 (Eltwise, ADD)                           [b:1,h:120,c:32]                          3,840                      eltwise_161   |                     +3,840(+100.0%)     Eltwise/add_/Nonlinearity_[138, 139]   
                                                                                                                                 eltwise_160   | 
       nl_162_nl (Nonlinearity, ADD)                        [b:1,h:120,c:32]                          3,840                      eltwise_162   |                     -3,840(-100.0%)     
------ ---------------------------------------------------- ---------------------- -------------- --------- -------------------------------- --- ------------------- ------------------- -------------------------------------- 
163    pad_163 (Pad, PAD)                                   [b:1,h:152,c:32]                                                       nl_162_nl   |                                         Pad_[140]                              
------ ---------------------------------------------------- ---------------------- -------------- --------- -------------------------------- --- ------------------- ------------------- -------------------------------------- 
164    spacetobatch_164 (SpaceToBatch, SPACE_TO_BATCH_ND)   [b:16,h:10,c:32]                                                         pad_163   |                                         
------ ---------------------------------------------------- ---------------------- -------------- --------- -------------------------------- --- ------------------- ------------------- -------------------------------------- 
165    reshape_165 (Reshape, EXPAND_DIMS)                   [b:16,h:1,w:10,c:32]                                            spacetobatch_164   |                                         
------ ---------------------------------------------------- ---------------------- -------------- --------- -------------------------------- --- ------------------- ------------------- -------------------------------------- 
166    conv2d_166 (Conv2D, CONV_2D)                         [b:16,h:1,w:8,c:32]    3,104/12,416      24,608                      reshape_165   | -12,416(-100.0%)    -24,608(-100.0%)    
------ ---------------------------------------------------- ---------------------- -------------- --------- -------------------------------- --- ------------------- ------------------- -------------------------------------- 
167    reshape_167 (Reshape, RESHAPE)                       [b:16,h:8,c:32]                                                       conv2d_166   |                                         
------ ---------------------------------------------------- ---------------------- -------------- --------- -------------------------------- --- ------------------- ------------------- -------------------------------------- 
168    batchtospace_168 (BatchToSpace, BATCH_TO_SPACE_ND)   [b:1,h:120,c:32]                                                     reshape_167   |                                         
------ ---------------------------------------------------- ---------------------- -------------- --------- -------------------------------- --- ------------------- ------------------- -------------------------------------- 
169    functional_1_conv1.._1_Squeeze (Placeholder, )       [b:32]                 32/128                                                      | +12,288(+9600.0%)   +368,672(+100.0%)   Conv2D_[141]                           
       eltwise_169 (Eltwise, ADD)                           [b:1,h:120,c:32]                          3,840                 batchtospace_168   |                     -3,840(-100.0%)     
                                                                                                              functional_1_conv1.._1_Squeeze   | 
------ ---------------------------------------------------- ---------------------- -------------- --------- -------------------------------- --- ------------------- ------------------- -------------------------------------- 
170    reduce_170 (Reduce, MEAN)                            [b:1,h:120,c:1]                           7,680                      eltwise_169   | +8(+100.0%)         -3,600(-46.9%)      Reduce_/ScaleBias_[142, 143]           
------ ---------------------------------------------------- ---------------------- -------------- --------- -------------------------------- --- ------------------- ------------------- -------------------------------------- 
171    nl_171 (Nonlinearity, NEG)                           [b:1,h:120,c:1]                             120                       reduce_170   |                                         Nonlinearity_[150]                     
------ ---------------------------------------------------- ---------------------- -------------- --------- -------------------------------- --- ------------------- ------------------- -------------------------------------- 
172    eltwise_172 (Eltwise, SQUARED_DIFFERENCE)            [b:1,h:120,c:32]                         19,200                      eltwise_169   |                                         Eltwise/squared_diff_[144]             
                                                                                                                                  reduce_170   | 
------ ---------------------------------------------------- ---------------------- -------------- --------- -------------------------------- --- ------------------- ------------------- -------------------------------------- 
173    reduce_173 (Reduce, MEAN)                            [b:1,h:120,c:1]                           7,680                      eltwise_172   |                     -7,680(-100.0%)     
------ ---------------------------------------------------- ---------------------- -------------- --------- -------------------------------- --- ------------------- ------------------- -------------------------------------- 
174    eltwise_174 (Eltwise, ADD)                           [b:1,h:120,c:1]                             120                       reduce_173   | +8(+100.0%)         +3,960(+3300.0%)    Reduce_/ScaleBias_[145, 146]           
                                                                                                                            arith_constant21   | 
------ ---------------------------------------------------- ---------------------- -------------- --------- -------------------------------- --- ------------------- ------------------- -------------------------------------- 
175    nl_175 (Nonlinearity, RSQRT)                         [b:1,h:120,c:1]                           1,440                      eltwise_174   |                                         Nonlinearity_[147]                     
------ ---------------------------------------------------- ---------------------- -------------- --------- -------------------------------- --- ------------------- ------------------- -------------------------------------- 
176    functional_1_layer.._1_Reshape (Placeholder, )       [b:1,h:1,c:32]         32/128                                                      |                     +120(+100.0%)       Eltwise/mul_[148]                      
       eltwise_176 (Eltwise, MUL)                           [b:1,h:120,c:32]                            120                           nl_175   |                     -120(-100.0%)       
                                                                                                              functional_1_layer.._1_Reshape   | 
------ ---------------------------------------------------- ---------------------- -------------- --------- -------------------------------- --- ------------------- ------------------- -------------------------------------- 
177    eltwise_177 (Eltwise, MUL)                           [b:1,h:120,c:32]                            120                           nl_171   |                                         Eltwise/mul_[151]                      
                                                                                                                                 eltwise_176   | 
------ ---------------------------------------------------- ---------------------- -------------- --------- -------------------------------- --- ------------------- ------------------- -------------------------------------- 
178    functional_1_layer.._Reshape_1 (Placeholder, )       [b:1,h:1,c:32]         32/128                                                      | +128(+100.0%)       +7,680(+100.0%)     ScaleBias_[152]                        
       eltwise_178 (Eltwise, ADD)                           [b:1,h:120,c:32]                          3,840                      eltwise_177   |                     -3,840(-100.0%)     
                                                                                                              functional_1_layer.._Reshape_1   | 
------ ---------------------------------------------------- ---------------------- -------------- --------- -------------------------------- --- ------------------- ------------------- -------------------------------------- 
179    eltwise_179 (Eltwise, MUL)                           [b:1,h:120,c:32]                          3,840                      eltwise_169   |                                         Eltwise/mul_[149]                      
                                                                                                                                 eltwise_176   | 
------ ---------------------------------------------------- ---------------------- -------------- --------- -------------------------------- --- ------------------- ------------------- -------------------------------------- 
180    eltwise_180 (Eltwise, ADD)                           [b:1,h:120,c:32]                          3,840                      eltwise_179   |                                         Eltwise/add_[153]                      
                                                                                                                                 eltwise_178   | 
------ ---------------------------------------------------- ---------------------- -------------- --------- -------------------------------- --- ------------------- ------------------- -------------------------------------- 
181    eltwise_181 (Eltwise, ADD)                           [b:1,h:120,c:32]                          3,840                        nl_144_nl   |                     +3,840(+100.0%)     Eltwise/add_/Nonlinearity_[154, 155]   
                                                                                                                                 eltwise_180   | 
       nl_181_nl (Nonlinearity, ADD)                        [b:1,h:120,c:32]                          3,840                      eltwise_181   |                     -3,840(-100.0%)     
------ ---------------------------------------------------- ---------------------- -------------- --------- -------------------------------- --- ------------------- ------------------- -------------------------------------- 
182    pad_182 (Pad, PAD)                                   [b:1,h:184,c:32]                                                       nl_181_nl   |                                         Pad_[156]                              
------ ---------------------------------------------------- ---------------------- -------------- --------- -------------------------------- --- ------------------- ------------------- -------------------------------------- 
183    spacetobatch_183 (SpaceToBatch, SPACE_TO_BATCH_ND)   [b:32,h:6,c:32]                                                          pad_182   |                                         
------ ---------------------------------------------------- ---------------------- -------------- --------- -------------------------------- --- ------------------- ------------------- -------------------------------------- 
184    reshape_184 (Reshape, EXPAND_DIMS)                   [b:32,h:1,w:6,c:32]                                             spacetobatch_183   |                                         
------ ---------------------------------------------------- ---------------------- -------------- --------- -------------------------------- --- ------------------- ------------------- -------------------------------------- 
185    conv2d_185 (Conv2D, CONV_2D)                         [b:32,h:1,w:4,c:32]    3,104/12,416      12,320                      reshape_184   | -12,416(-100.0%)    -12,320(-100.0%)    
------ ---------------------------------------------------- ---------------------- -------------- --------- -------------------------------- --- ------------------- ------------------- -------------------------------------- 
186    reshape_186 (Reshape, RESHAPE)                       [b:32,h:4,c:32]                                                       conv2d_185   |                                         
------ ---------------------------------------------------- ---------------------- -------------- --------- -------------------------------- --- ------------------- ------------------- -------------------------------------- 
187    batchtospace_187 (BatchToSpace, BATCH_TO_SPACE_ND)   [b:1,h:120,c:32]                                                     reshape_186   |                                         
------ ---------------------------------------------------- ---------------------- -------------- --------- -------------------------------- --- ------------------- ------------------- -------------------------------------- 
188    functional_1_conv1.._1_Squeeze (Placeholder, )       [b:32]                 32/128                                                      | +12,288(+9600.0%)   +368,672(+100.0%)   Conv2D_[157]                           
       eltwise_188 (Eltwise, ADD)                           [b:1,h:120,c:32]                          3,840                 batchtospace_187   |                     -3,840(-100.0%)     
                                                                                                              functional_1_conv1.._1_Squeeze   | 
------ ---------------------------------------------------- ---------------------- -------------- --------- -------------------------------- --- ------------------- ------------------- -------------------------------------- 
189    reduce_189 (Reduce, MEAN)                            [b:1,h:120,c:1]                           7,680                      eltwise_188   | +8(+100.0%)         -3,600(-46.9%)      Reduce_/ScaleBias_[158, 159]           
------ ---------------------------------------------------- ---------------------- -------------- --------- -------------------------------- --- ------------------- ------------------- -------------------------------------- 
190    nl_190 (Nonlinearity, NEG)                           [b:1,h:120,c:1]                             120                       reduce_189   |                                         Nonlinearity_[166]                     
------ ---------------------------------------------------- ---------------------- -------------- --------- -------------------------------- --- ------------------- ------------------- -------------------------------------- 
191    eltwise_191 (Eltwise, SQUARED_DIFFERENCE)            [b:1,h:120,c:32]                         19,200                      eltwise_188   |                                         Eltwise/squared_diff_[160]             
                                                                                                                                  reduce_189   | 
------ ---------------------------------------------------- ---------------------- -------------- --------- -------------------------------- --- ------------------- ------------------- -------------------------------------- 
192    reduce_192 (Reduce, MEAN)                            [b:1,h:120,c:1]                           7,680                      eltwise_191   |                     -7,680(-100.0%)     
------ ---------------------------------------------------- ---------------------- -------------- --------- -------------------------------- --- ------------------- ------------------- -------------------------------------- 
193    eltwise_193 (Eltwise, ADD)                           [b:1,h:120,c:1]                             120                       reduce_192   | +8(+100.0%)         +3,960(+3300.0%)    Reduce_/ScaleBias_[161, 162]           
                                                                                                                            arith_constant21   | 
------ ---------------------------------------------------- ---------------------- -------------- --------- -------------------------------- --- ------------------- ------------------- -------------------------------------- 
194    nl_194 (Nonlinearity, RSQRT)                         [b:1,h:120,c:1]                           1,440                      eltwise_193   |                                         Nonlinearity_[163]                     
------ ---------------------------------------------------- ---------------------- -------------- --------- -------------------------------- --- ------------------- ------------------- -------------------------------------- 
195    functional_1_layer.._1_Reshape (Placeholder, )       [b:1,h:1,c:32]         32/128                                                      |                     +120(+100.0%)       Eltwise/mul_[164]                      
       eltwise_195 (Eltwise, MUL)                           [b:1,h:120,c:32]                            120                           nl_194   |                     -120(-100.0%)       
                                                                                                              functional_1_layer.._1_Reshape   | 
------ ---------------------------------------------------- ---------------------- -------------- --------- -------------------------------- --- ------------------- ------------------- -------------------------------------- 
196    eltwise_196 (Eltwise, MUL)                           [b:1,h:120,c:32]                            120                           nl_190   |                                         Eltwise/mul_[167]                      
                                                                                                                                 eltwise_195   | 
------ ---------------------------------------------------- ---------------------- -------------- --------- -------------------------------- --- ------------------- ------------------- -------------------------------------- 
197    functional_1_layer.._Reshape_1 (Placeholder, )       [b:1,h:1,c:32]         32/128                                                      | +128(+100.0%)       +7,680(+100.0%)     ScaleBias_[168]                        
       eltwise_197 (Eltwise, ADD)                           [b:1,h:120,c:32]                          3,840                      eltwise_196   |                     -3,840(-100.0%)     
                                                                                                              functional_1_layer.._Reshape_1   | 
------ ---------------------------------------------------- ---------------------- -------------- --------- -------------------------------- --- ------------------- ------------------- -------------------------------------- 
198    eltwise_198 (Eltwise, MUL)                           [b:1,h:120,c:32]                          3,840                      eltwise_188   |                                         Eltwise/mul_[165]                      
                                                                                                                                 eltwise_195   | 
------ ---------------------------------------------------- ---------------------- -------------- --------- -------------------------------- --- ------------------- ------------------- -------------------------------------- 
199    eltwise_199 (Eltwise, ADD)                           [b:1,h:120,c:32]                          3,840                      eltwise_198   |                     +3,840(+100.0%)     Eltwise/add_/Nonlinearity_[169, 170]   
                                                                                                                                 eltwise_197   | 
       nl_199_nl (Nonlinearity, ADD)                        [b:1,h:120,c:32]                          3,840                      eltwise_199   |                     -3,840(-100.0%)     
------ ---------------------------------------------------- ---------------------- -------------- --------- -------------------------------- --- ------------------- ------------------- -------------------------------------- 
200    pad_200 (Pad, PAD)                                   [b:1,h:184,c:32]                                                       nl_199_nl   |                                         Pad_[171]                              
------ ---------------------------------------------------- ---------------------- -------------- --------- -------------------------------- --- ------------------- ------------------- -------------------------------------- 
201    spacetobatch_201 (SpaceToBatch, SPACE_TO_BATCH_ND)   [b:32,h:6,c:32]                                                          pad_200   |                                         
------ ---------------------------------------------------- ---------------------- -------------- --------- -------------------------------- --- ------------------- ------------------- -------------------------------------- 
202    reshape_202 (Reshape, EXPAND_DIMS)                   [b:32,h:1,w:6,c:32]                                             spacetobatch_201   |                                         
------ ---------------------------------------------------- ---------------------- -------------- --------- -------------------------------- --- ------------------- ------------------- -------------------------------------- 
203    conv2d_203 (Conv2D, CONV_2D)                         [b:32,h:1,w:4,c:32]    3,104/12,416      12,320                      reshape_202   | -12,416(-100.0%)    -12,320(-100.0%)    
------ ---------------------------------------------------- ---------------------- -------------- --------- -------------------------------- --- ------------------- ------------------- -------------------------------------- 
204    reshape_204 (Reshape, RESHAPE)                       [b:32,h:4,c:32]                                                       conv2d_203   |                                         
------ ---------------------------------------------------- ---------------------- -------------- --------- -------------------------------- --- ------------------- ------------------- -------------------------------------- 
205    batchtospace_205 (BatchToSpace, BATCH_TO_SPACE_ND)   [b:1,h:120,c:32]                                                     reshape_204   |                                         
------ ---------------------------------------------------- ---------------------- -------------- --------- -------------------------------- --- ------------------- ------------------- -------------------------------------- 
206    functional_1_conv1.._1_Squeeze (Placeholder, )       [b:32]                 32/128                                                      | +12,288(+9600.0%)   +368,672(+100.0%)   Conv2D_[172]                           
       eltwise_206 (Eltwise, ADD)                           [b:1,h:120,c:32]                          3,840                 batchtospace_205   |                     -3,840(-100.0%)     
                                                                                                              functional_1_conv1.._1_Squeeze   | 
------ ---------------------------------------------------- ---------------------- -------------- --------- -------------------------------- --- ------------------- ------------------- -------------------------------------- 
207    reduce_207 (Reduce, MEAN)                            [b:1,h:120,c:1]                           7,680                      eltwise_206   | +8(+100.0%)         -3,600(-46.9%)      Reduce_/ScaleBias_[173, 174]           
------ ---------------------------------------------------- ---------------------- -------------- --------- -------------------------------- --- ------------------- ------------------- -------------------------------------- 
208    nl_208 (Nonlinearity, NEG)                           [b:1,h:120,c:1]                             120                       reduce_207   |                                         Nonlinearity_[181]                     
------ ---------------------------------------------------- ---------------------- -------------- --------- -------------------------------- --- ------------------- ------------------- -------------------------------------- 
209    eltwise_209 (Eltwise, SQUARED_DIFFERENCE)            [b:1,h:120,c:32]                         19,200                      eltwise_206   |                                         Eltwise/squared_diff_[175]             
                                                                                                                                  reduce_207   | 
------ ---------------------------------------------------- ---------------------- -------------- --------- -------------------------------- --- ------------------- ------------------- -------------------------------------- 
210    reduce_210 (Reduce, MEAN)                            [b:1,h:120,c:1]                           7,680                      eltwise_209   |                     -7,680(-100.0%)     
------ ---------------------------------------------------- ---------------------- -------------- --------- -------------------------------- --- ------------------- ------------------- -------------------------------------- 
211    eltwise_211 (Eltwise, ADD)                           [b:1,h:120,c:1]                             120                       reduce_210   | +8(+100.0%)         +3,960(+3300.0%)    Reduce_/ScaleBias_[176, 177]           
                                                                                                                            arith_constant21   | 
------ ---------------------------------------------------- ---------------------- -------------- --------- -------------------------------- --- ------------------- ------------------- -------------------------------------- 
212    nl_212 (Nonlinearity, RSQRT)                         [b:1,h:120,c:1]                           1,440                      eltwise_211   |                                         Nonlinearity_[178]                     
------ ---------------------------------------------------- ---------------------- -------------- --------- -------------------------------- --- ------------------- ------------------- -------------------------------------- 
213    functional_1_layer.._1_Reshape (Placeholder, )       [b:1,h:1,c:32]         32/128                                                      |                     +120(+100.0%)       Eltwise/mul_[179]                      
       eltwise_213 (Eltwise, MUL)                           [b:1,h:120,c:32]                            120                           nl_212   |                     -120(-100.0%)       
                                                                                                              functional_1_layer.._1_Reshape   | 
------ ---------------------------------------------------- ---------------------- -------------- --------- -------------------------------- --- ------------------- ------------------- -------------------------------------- 
214    eltwise_214 (Eltwise, MUL)                           [b:1,h:120,c:32]                            120                           nl_208   |                                         Eltwise/mul_[182]                      
                                                                                                                                 eltwise_213   | 
------ ---------------------------------------------------- ---------------------- -------------- --------- -------------------------------- --- ------------------- ------------------- -------------------------------------- 
215    functional_1_layer.._Reshape_1 (Placeholder, )       [b:1,h:1,c:32]         32/128                                                      | +128(+100.0%)       +7,680(+100.0%)     ScaleBias_[183]                        
       eltwise_215 (Eltwise, ADD)                           [b:1,h:120,c:32]                          3,840                      eltwise_214   |                     -3,840(-100.0%)     
                                                                                                              functional_1_layer.._Reshape_1   | 
------ ---------------------------------------------------- ---------------------- -------------- --------- -------------------------------- --- ------------------- ------------------- -------------------------------------- 
216    eltwise_216 (Eltwise, MUL)                           [b:1,h:120,c:32]                          3,840                      eltwise_206   |                                         Eltwise/mul_[180]                      
                                                                                                                                 eltwise_213   | 
------ ---------------------------------------------------- ---------------------- -------------- --------- -------------------------------- --- ------------------- ------------------- -------------------------------------- 
217    eltwise_217 (Eltwise, ADD)                           [b:1,h:120,c:32]                          3,840                      eltwise_216   |                                         Eltwise/add_[184]                      
                                                                                                                                 eltwise_215   | 
------ ---------------------------------------------------- ---------------------- -------------- --------- -------------------------------- --- ------------------- ------------------- -------------------------------------- 
218    eltwise_218 (Eltwise, ADD)                           [b:1,h:120,c:32]                          3,840                        nl_181_nl   |                     +3,840(+100.0%)     Eltwise/add_/Nonlinearity_[185, 186]   
                                                                                                                                 eltwise_217   | 
       nl_218_nl (Nonlinearity, ADD)                        [b:1,h:120,c:32]                          3,840                      eltwise_218   |                     -3,840(-100.0%)     
------ ---------------------------------------------------- ---------------------- -------------- --------- -------------------------------- --- ------------------- ------------------- -------------------------------------- 
219    slice_219 (Slice, STRIDED_SLICE)                     [b:1,h:1,c:32]                                                         nl_218_nl   | +4(+100.0%)                             Gather_[187]                           
       reshape_219_reshape (Reshape, STRIDED_SLICE)         [b:1,c:32]                                                             slice_219   |                                         
------ ---------------------------------------------------- ---------------------- -------------- --------- -------------------------------- --- ------------------- ------------------- -------------------------------------- 
220    functional_1_dense_1_MatMul (Placeholder, )          [b:64,c:32]            2,048/8,192                                                 | +256(+3.1%)         +2,176(+100.0%)     Dense_/Nonlinearity_[188, 189]         
       functional_1_dense.._1_BiasAdd (Placeholder, )       [b:64]                 64/256                                                      | -256(-100.0%)                           
       gemm_220 (Gemm, FULLY_CONNECTED)                     [b:1,c:64]                                2,112              reshape_219_reshape   |                     -2,112(-100.0%)     
                                                                                                                 functional_1_dense_1_MatMul   | 
                                                                                                              functional_1_dense.._1_BiasAdd   | 
       nl_220_nl (Nonlinearity, FULLY_CONNECTED)            [b:1,c:64]                                   64                         gemm_220   |                     -64(-100.0%)        
------ ---------------------------------------------------- ---------------------- -------------- --------- -------------------------------- --- ------------------- ------------------- -------------------------------------- 
221    functional_1_dense_1_2_MatMul (Placeholder, )        [b:32,c:64]            2,048/8,192                                                 | +128(+1.6%)         +2,112(+100.0%)     Dense_/Nonlinearity_[190, 191]         
       functional_1_dense.._2_BiasAdd (Placeholder, )       [b:32]                 32/128                                                      | -128(-100.0%)                           
       gemm_221 (Gemm, FULLY_CONNECTED)                     [b:1,c:32]                                2,080                        nl_220_nl   |                     -2,080(-100.0%)     
                                                                                                               functional_1_dense_1_2_MatMul   | 
                                                                                                              functional_1_dense.._2_BiasAdd   | 
       nl_221_nl (Nonlinearity, FULLY_CONNECTED)            [b:1,c:32]                                   32                         gemm_221   |                     -32(-100.0%)        
------ ---------------------------------------------------- ---------------------- -------------- --------- -------------------------------- --- ------------------- ------------------- -------------------------------------- 
222    functional_1_output_1_MatMul (Placeholder, )         [b:1,c:32]             32/128                                                      | +4(+3.1%)           +33(+100.0%)        Dense_[o][192]                         
       functional_1_output_1_Add (Placeholder, )            [b:1]                  1/4                                                         | -4(-100.0%)                             
       gemm_222 (Gemm, FULLY_CONNECTED)                     [b:1,c:1]                                    33                        nl_221_nl   |                     -33(-100.0%)        
                                                                                                                functional_1_output_1_MatMul   | 
                                                                                                                   functional_1_output_1_Add   | 
------ ---------------------------------------------------- ---------------------- -------------- --------- -------------------------------- --- ------------------- ------------------- -------------------------------------- 
model/c-model: macc=1,791,105/4,678,497 +2,887,392(+161.2%) weights=158,600/157,460 -1,140(-0.7%) activations=--/54,400 io=--/0



Generated C-graph summary
------------------------------------------------------------------------------------------------------------------------
model name            : PowerOnly_TCN_120min_NoAux_Huber_float32
c-name                : bms_model
c-node #              : 193
c-array #             : 258
activations size      : 54400 (1 segment)
weights size          : 157460 (1 segment)
macc                  : 4678497
inputs                : ['serving_default_sequence_input0_output']
outputs               : ['gemm_222_output']

C-Arrays (258)
------ ----------------------------------------------- ------------ ------------------------- ------------- --------- 
c_id   name (*_array)                                  item/size    domain/mem-pool           c-type        comment   
------ ----------------------------------------------- ------------ ------------------------- ------------- --------- 
0      conv2d_111_bias                                 32/128       weights/weights           const float             
1      conv2d_111_output                               3840/15360   activations/**default**   float                   
2      conv2d_111_weights                              3072/12288   weights/weights           const float             
3      conv2d_129_bias                                 32/128       weights/weights           const float             
4      conv2d_129_output                               3840/15360   activations/**default**   float                   
5      conv2d_129_weights                              3072/12288   weights/weights           const float             
6      conv2d_148_bias                                 32/128       weights/weights           const float             
7      conv2d_148_output                               3840/15360   activations/**default**   float                   
8      conv2d_148_weights                              3072/12288   weights/weights           const float             
9      conv2d_166_bias                                 32/128       weights/weights           const float             
10     conv2d_166_output                               3840/15360   activations/**default**   float                   
11     conv2d_166_weights                              3072/12288   weights/weights           const float             
12     conv2d_17_bias                                  32/128       weights/weights           const float             
13     conv2d_17_output                                3840/15360   activations/**default**   float                   
14     conv2d_17_scratch0                              96/384       activations/**default**   float                   
15     conv2d_17_weights                               3072/12288   weights/weights           const float             
16     conv2d_185_bias                                 32/128       weights/weights           const float             
17     conv2d_185_output                               3840/15360   activations/**default**   float                   
18     conv2d_185_weights                              3072/12288   weights/weights           const float             
19     conv2d_203_bias                                 32/128       weights/weights           const float             
20     conv2d_203_output                               3840/15360   activations/**default**   float                   
21     conv2d_203_weights                              3072/12288   weights/weights           const float             
22     conv2d_2_bias                                   32/128       weights/weights           const float             
23     conv2d_2_output                                 3840/15360   activations/**default**   float                   
24     conv2d_2_scratch0                               3/12         activations/**default**   float                   
25     conv2d_2_weights                                96/384       weights/weights           const float             
26     conv2d_31_bias                                  32/128       weights/weights           const float             
27     conv2d_31_output                                3840/15360   activations/**default**   float                   
28     conv2d_31_scratch0                              1/4          activations/**default**   float                   
29     conv2d_31_weights                               32/128       weights/weights           const float             
30     conv2d_37_bias                                  32/128       weights/weights           const float             
31     conv2d_37_output                                3840/15360   activations/**default**   float                   
32     conv2d_37_weights                               3072/12288   weights/weights           const float             
33     conv2d_55_bias                                  32/128       weights/weights           const float             
34     conv2d_55_output                                3840/15360   activations/**default**   float                   
35     conv2d_55_weights                               3072/12288   weights/weights           const float             
36     conv2d_74_bias                                  32/128       weights/weights           const float             
37     conv2d_74_output                                3840/15360   activations/**default**   float                   
38     conv2d_74_weights                               3072/12288   weights/weights           const float             
39     conv2d_92_bias                                  32/128       weights/weights           const float             
40     conv2d_92_output                                3840/15360   activations/**default**   float                   
41     conv2d_92_weights                               3072/12288   weights/weights           const float             
42     eltwise_102_output                              3840/15360   activations/**default**   float                   
43     eltwise_103_output                              3840/15360   activations/**default**   float                   
44     eltwise_104_bias                                32/128       weights/weights           const float             
45     eltwise_104_output                              3840/15360   activations/**default**   float                   
46     eltwise_105_output                              3840/15360   activations/**default**   float                   
47     eltwise_106_output                              3840/15360   activations/**default**   float                   
48     eltwise_107_output                              3840/15360   activations/**default**   float                   
49     eltwise_10_output                               3840/15360   activations/**default**   float                   
50     eltwise_117_output                              3840/15360   activations/**default**   float                   
51     eltwise_11_output                               3840/15360   activations/**default**   float                   
52     eltwise_121_output                              3840/15360   activations/**default**   float                   
53     eltwise_122_output                              3840/15360   activations/**default**   float                   
54     eltwise_123_bias                                32/128       weights/weights           const float             
55     eltwise_123_output                              3840/15360   activations/**default**   float                   
56     eltwise_124_output                              3840/15360   activations/**default**   float                   
57     eltwise_125_output                              3840/15360   activations/**default**   float                   
58     eltwise_12_bias                                 32/128       weights/weights           const float             
59     eltwise_12_output                               3840/15360   activations/**default**   float                   
60     eltwise_12_scale                                32/128       weights/weights           const float             
61     eltwise_135_output                              3840/15360   activations/**default**   float                   
62     eltwise_139_output                              3840/15360   activations/**default**   float                   
63     eltwise_13_output                               3840/15360   activations/**default**   float                   
64     eltwise_140_output                              3840/15360   activations/**default**   float                   
65     eltwise_141_bias                                32/128       weights/weights           const float             
66     eltwise_141_output                              3840/15360   activations/**default**   float                   
67     eltwise_142_output                              3840/15360   activations/**default**   float                   
68     eltwise_143_output                              3840/15360   activations/**default**   float                   
69     eltwise_144_output                              3840/15360   activations/**default**   float                   
70     eltwise_14_output                               3840/15360   activations/**default**   float                   
71     eltwise_154_output                              3840/15360   activations/**default**   float                   
72     eltwise_158_output                              3840/15360   activations/**default**   float                   
73     eltwise_159_output                              3840/15360   activations/**default**   float                   
74     eltwise_160_bias                                32/128       weights/weights           const float             
75     eltwise_160_output                              3840/15360   activations/**default**   float                   
76     eltwise_161_output                              3840/15360   activations/**default**   float                   
77     eltwise_162_output                              3840/15360   activations/**default**   float                   
78     eltwise_172_output                              3840/15360   activations/**default**   float                   
79     eltwise_176_output                              3840/15360   activations/**default**   float                   
80     eltwise_177_output                              3840/15360   activations/**default**   float                   
81     eltwise_178_bias                                32/128       weights/weights           const float             
82     eltwise_178_output                              3840/15360   activations/**default**   float                   
83     eltwise_179_output                              3840/15360   activations/**default**   float                   
84     eltwise_180_output                              3840/15360   activations/**default**   float                   
85     eltwise_181_output                              3840/15360   activations/**default**   float                   
86     eltwise_191_output                              3840/15360   activations/**default**   float                   
87     eltwise_195_output                              3840/15360   activations/**default**   float                   
88     eltwise_196_output                              3840/15360   activations/**default**   float                   
89     eltwise_197_bias                                32/128       weights/weights           const float             
90     eltwise_197_output                              3840/15360   activations/**default**   float                   
91     eltwise_198_output                              3840/15360   activations/**default**   float                   
92     eltwise_199_output                              3840/15360   activations/**default**   float                   
93     eltwise_209_output                              3840/15360   activations/**default**   float                   
94     eltwise_213_output                              3840/15360   activations/**default**   float                   
95     eltwise_214_output                              3840/15360   activations/**default**   float                   
96     eltwise_215_bias                                32/128       weights/weights           const float             
97     eltwise_215_output                              3840/15360   activations/**default**   float                   
98     eltwise_216_output                              3840/15360   activations/**default**   float                   
99     eltwise_217_output                              3840/15360   activations/**default**   float                   
100    eltwise_218_output                              3840/15360   activations/**default**   float                   
101    eltwise_21_output                               3840/15360   activations/**default**   float                   
102    eltwise_25_output                               3840/15360   activations/**default**   float                   
103    eltwise_26_output                               3840/15360   activations/**default**   float                   
104    eltwise_27_bias                                 32/128       weights/weights           const float             
105    eltwise_27_output                               3840/15360   activations/**default**   float                   
106    eltwise_28_output                               3840/15360   activations/**default**   float                   
107    eltwise_29_output                               3840/15360   activations/**default**   float                   
108    eltwise_33_output                               3840/15360   activations/**default**   float                   
109    eltwise_43_output                               3840/15360   activations/**default**   float                   
110    eltwise_47_output                               3840/15360   activations/**default**   float                   
111    eltwise_48_output                               3840/15360   activations/**default**   float                   
112    eltwise_49_bias                                 32/128       weights/weights           const float             
113    eltwise_49_output                               3840/15360   activations/**default**   float                   
114    eltwise_50_output                               3840/15360   activations/**default**   float                   
115    eltwise_51_output                               3840/15360   activations/**default**   float                   
116    eltwise_61_output                               3840/15360   activations/**default**   float                   
117    eltwise_65_output                               3840/15360   activations/**default**   float                   
118    eltwise_66_output                               3840/15360   activations/**default**   float                   
119    eltwise_67_bias                                 32/128       weights/weights           const float             
120    eltwise_67_output                               3840/15360   activations/**default**   float                   
121    eltwise_68_output                               3840/15360   activations/**default**   float                   
122    eltwise_69_output                               3840/15360   activations/**default**   float                   
123    eltwise_6_output                                3840/15360   activations/**default**   float                   
124    eltwise_70_output                               3840/15360   activations/**default**   float                   
125    eltwise_80_output                               3840/15360   activations/**default**   float                   
126    eltwise_84_output                               3840/15360   activations/**default**   float                   
127    eltwise_85_output                               3840/15360   activations/**default**   float                   
128    eltwise_86_bias                                 32/128       weights/weights           const float             
129    eltwise_86_output                               3840/15360   activations/**default**   float                   
130    eltwise_87_output                               3840/15360   activations/**default**   float                   
131    eltwise_88_output                               3840/15360   activations/**default**   float                   
132    eltwise_98_output                               3840/15360   activations/**default**   float                   
133    functional_1_layer_normalization_10_1_Reshape   32/128       weights/weights           const float             
134    functional_1_layer_normalization_11_1_Reshape   32/128       weights/weights           const float             
135    functional_1_layer_normalization_1_2_Reshape    32/128       weights/weights           const float             
136    functional_1_layer_normalization_1_Reshape      32/128       weights/weights           const float             
137    functional_1_layer_normalization_2_1_Reshape    32/128       weights/weights           const float             
138    functional_1_layer_normalization_3_1_Reshape    32/128       weights/weights           const float             
139    functional_1_layer_normalization_4_1_Reshape    32/128       weights/weights           const float             
140    functional_1_layer_normalization_5_1_Reshape    32/128       weights/weights           const float             
141    functional_1_layer_normalization_6_1_Reshape    32/128       weights/weights           const float             
142    functional_1_layer_normalization_7_1_Reshape    32/128       weights/weights           const float             
143    functional_1_layer_normalization_8_1_Reshape    32/128       weights/weights           const float             
144    functional_1_layer_normalization_9_1_Reshape    32/128       weights/weights           const float             
145    gemm_220_bias                                   64/256       weights/weights           const float             
146    gemm_220_output                                 64/256       activations/**default**   float                   
147    gemm_220_weights                                2048/8192    weights/weights           const float             
148    gemm_221_bias                                   32/128       weights/weights           const float             
149    gemm_221_output                                 32/128       activations/**default**   float                   
150    gemm_221_weights                                2048/8192    weights/weights           const float             
151    gemm_222_bias                                   1/4          weights/weights           const float             
152    gemm_222_output                                 1/4          activations/**default**   float         /output   
153    gemm_222_weights                                32/128       weights/weights           const float             
154    nl_101_output                                   120/480      activations/**default**   float                   
155    nl_107_nl_output                                3840/15360   activations/**default**   float                   
156    nl_116_output                                   120/480      activations/**default**   float                   
157    nl_120_output                                   120/480      activations/**default**   float                   
158    nl_125_nl_output                                3840/15360   activations/**default**   float                   
159    nl_134_output                                   120/480      activations/**default**   float                   
160    nl_138_output                                   120/480      activations/**default**   float                   
161    nl_144_nl_output                                3840/15360   activations/**default**   float                   
162    nl_14_nl_output                                 3840/15360   activations/**default**   float                   
163    nl_153_output                                   120/480      activations/**default**   float                   
164    nl_157_output                                   120/480      activations/**default**   float                   
165    nl_162_nl_output                                3840/15360   activations/**default**   float                   
166    nl_171_output                                   120/480      activations/**default**   float                   
167    nl_175_output                                   120/480      activations/**default**   float                   
168    nl_181_nl_output                                3840/15360   activations/**default**   float                   
169    nl_190_output                                   120/480      activations/**default**   float                   
170    nl_194_output                                   120/480      activations/**default**   float                   
…
172    conv2d_203           206   Conv2D                  368672   12416   I: pad_200_output                                  f32(1x184x32) (199)    
                                                                           W: conv2d_203_weights                              f32(32x3x1x32) (21)    
                                                                           W: conv2d_203_bias                                 f32(32) (19)           
                                                                           O: conv2d_203_output                               f32(1x120x32) (20)     
------ -------------------- ----- ----------------------- -------- ------- -------------------------------------------------- ---------------------- 
173    reduce_207           207   Reduce                  3840     0       I: conv2d_203_output                               f32(1x120x32) (20)     
                                                                           O: reduce_207_output                               f32(1x120x1) (227)     
------ -------------------- ----- ----------------------- -------- ------- -------------------------------------------------- ---------------------- 
174    reduce_207_Mul       207   ScaleBias               240      8       I: reduce_207_output                               f32(1x120x1) (227)     
                                                                           W: reduce_4_Mul_scale                              f32(1) (238)           
                                                                           W: reduce_4_Mul_bias                               f32(1) (236)           
                                                                           O: reduce_207_Mul_output                           f32(1x120x1) (226)     
------ -------------------- ----- ----------------------- -------- ------- -------------------------------------------------- ---------------------- 
175    eltwise_209          209   Eltwise/squared_diff    19200    0       I: conv2d_203_output                               f32(1x120x32) (20)     
                                                                           I: reduce_207_Mul_output                           f32(1x120x32) (20)     
                                                                           O: eltwise_209_output                              f32(1x120x32) (93)     
------ -------------------- ----- ----------------------- -------- ------- -------------------------------------------------- ---------------------- 
176    reduce_210           211   Reduce                  3840     0       I: eltwise_209_output                              f32(1x120x32) (93)     
                                                                           O: reduce_210_output                               f32(1x120x1) (229)     
------ -------------------- ----- ----------------------- -------- ------- -------------------------------------------------- ---------------------- 
177    reduce_210_Mul       211   ScaleBias               240      8       I: reduce_210_output                               f32(1x120x1) (229)     
                                                                           W: reduce_4_Mul_scale                              f32(1) (238)           
                                                                           W: reduce_7_Mul_bias                               f32(1) (246)           
                                                                           O: reduce_210_Mul_output                           f32(1x120x1) (228)     
------ -------------------- ----- ----------------------- -------- ------- -------------------------------------------------- ---------------------- 
178    nl_212               212   Nonlinearity            1440     0       I: reduce_210_Mul_output                           f32(1x120x1) (228)     
                                                                           O: nl_212_output                                   f32(1x120x1) (174)     
------ -------------------- ----- ----------------------- -------- ------- -------------------------------------------------- ---------------------- 
179    eltwise_213          213   Eltwise/mul             120      128     I: nl_212_output                                   f32(1x120x1) (174)     
                                                                           W: functional_1_layer_normalization_11_1_Reshape   f32(1x32) (134)        
                                                                           O: eltwise_213_output                              f32(1x120x32) (94)     
------ -------------------- ----- ----------------------- -------- ------- -------------------------------------------------- ---------------------- 
180    eltwise_216          216   Eltwise/mul             3840     0       I: conv2d_203_output                               f32(1x120x32) (20)     
                                                                           I: eltwise_213_output                              f32(1x120x32) (20)     
                                                                           O: eltwise_216_output                              f32(1x120x32) (98)     
------ -------------------- ----- ----------------------- -------- ------- -------------------------------------------------- ---------------------- 
181    nl_208               208   Nonlinearity            120      0       I: reduce_207_Mul_output                           f32(1x120x1) (226)     
                                                                           O: nl_208_output                                   f32(1x120x1) (172)     
------ -------------------- ----- ----------------------- -------- ------- -------------------------------------------------- ---------------------- 
182    eltwise_214          214   Eltwise/mul             120      0       I: nl_208_output                                   f32(1x120x1) (172)     
                                                                           I: eltwise_213_output                              f32(1x120x1) (172)     
                                                                           O: eltwise_214_output                              f32(1x120x32) (95)     
------ -------------------- ----- ----------------------- -------- ------- -------------------------------------------------- ---------------------- 
183    eltwise_215          215   ScaleBias               7680     256     I: eltwise_214_output                              f32(1x120x32) (95)     
                                                                           W: eltwise_12_scale                                f32(32) (60)           
                                                                           W: eltwise_215_bias                                f32(32) (96)           
                                                                           O: eltwise_215_output                              f32(1x120x32) (97)     
------ -------------------- ----- ----------------------- -------- ------- -------------------------------------------------- ---------------------- 
184    eltwise_217          217   Eltwise/add             3840     0       I: eltwise_216_output                              f32(1x120x32) (98)     
                                                                           I: eltwise_215_output                              f32(1x120x32) (98)     
                                                                           O: eltwise_217_output                              f32(1x120x32) (99)     
------ -------------------- ----- ----------------------- -------- ------- -------------------------------------------------- ---------------------- 
185    eltwise_218          218   Eltwise/add             3840     0       I: nl_181_nl_output                                f32(1x120x32) (168)    
                                                                           I: eltwise_217_output                              f32(1x120x32) (168)    
                                                                           O: eltwise_218_output                              f32(1x120x32) (100)    
------ -------------------- ----- ----------------------- -------- ------- -------------------------------------------------- ---------------------- 
186    nl_218_nl            218   Nonlinearity            3840     0       I: eltwise_218_output                              f32(1x120x32) (100)    
                                                                           O: nl_218_nl_output                                f32(1x120x32) (175)    
------ -------------------- ----- ----------------------- -------- ------- -------------------------------------------------- ---------------------- 
187    slice_219_gather_0   219   Gather                  0        4       I: nl_218_nl_output                                f32(1x120x32) (175)    
                                                                           W: slice_219_gather_0_placeholder                  int32(1) (257)         
                                                                           O: slice_219_gather_0_output                       f32(1x1x32) (256)      
------ -------------------- ----- ----------------------- -------- ------- -------------------------------------------------- ---------------------- 
188    gemm_220             220   Dense                   2112     8448    I: slice_219_gather_0_output                       f32(1x1x32) (256)      
                                                                           W: gemm_220_weights                                f32(64x32) (147)       
                                                                           W: gemm_220_bias                                   f32(64) (145)          
                                                                           O: gemm_220_output                                 f32(1x64) (146)        
------ -------------------- ----- ----------------------- -------- ------- -------------------------------------------------- ---------------------- 
189    nl_220_nl            220   Nonlinearity            64       0       I: gemm_220_output                                 f32(1x64) (146)        
                                                                           O: nl_220_nl_output                                f32(1x64) (176)        
------ -------------------- ----- ----------------------- -------- ------- -------------------------------------------------- ---------------------- 
190    gemm_221             221   Dense                   2080     8320    I: nl_220_nl_output                                f32(1x64) (176)        
                                                                           W: gemm_221_weights                                f32(32x64) (150)       
                                                                           W: gemm_221_bias                                   f32(32) (148)          
                                                                           O: gemm_221_output                                 f32(1x32) (149)        
------ -------------------- ----- ----------------------- -------- ------- -------------------------------------------------- ---------------------- 
191    nl_221_nl            221   Nonlinearity            32       0       I: gemm_221_output                                 f32(1x32) (149)        
                                                                           O: nl_221_nl_output                                f32(1x32) (177)        
------ -------------------- ----- ----------------------- -------- ------- -------------------------------------------------- ---------------------- 
192    gemm_222             222   Dense                   33       132     I: nl_221_nl_output                                f32(1x32) (177)        
                                                                           W: gemm_222_weights                                f32(1x32) (153)        
                                                                           W: gemm_222_bias                                   f32(1) (151)           
                                                                           O: gemm_222_output                                 f32(1x1) (152)         
------ -------------------- ----- ----------------------- -------- ------- -------------------------------------------------- ---------------------- 



Number of operations per c-layer
------- ------ ------------------------------------ ----------- -------------- 
c_id    m_id   name (type)                                  #op           type 
------- ------ ------------------------------------ ----------- -------------- 
0       31     conv2d_31 (Conv2D)                         3,872   smul_f32_f32 
1       0      pad_0 (Pad)                                    0   smul_f32_f32 
2       2      conv2d_2 (Conv2D)                         11,552   smul_f32_f32 
3       4      reduce_4 (Reduce)                          3,840   smul_f32_f32 
4       4      reduce_4_Mul (ScaleBias)                     240   smul_f32_f32 
5       6      eltwise_6 (Eltwise/squared_diff)          19,200     op_f32_f32 
6       8      reduce_7 (Reduce)                          3,840   smul_f32_f32 
7       8      reduce_7_Mul (ScaleBias)                     240   smul_f32_f32 
8       9      nl_9 (Nonlinearity)                        1,440     op_f32_f32 
9       10     eltwise_10 (Eltwise/mul)                     120     op_f32_f32 
10      13     eltwise_13 (Eltwise/mul)                   3,840     op_f32_f32 
11      5      nl_5 (Nonlinearity)                          120     op_f32_f32 
12      11     eltwise_11 (Eltwise/mul)                     120     op_f32_f32 
13      12     eltwise_12 (ScaleBias)                     7,680   smul_f32_f32 
14      14     eltwise_14 (Eltwise/add)                   3,840     op_f32_f32 
15      14     nl_14_nl (Nonlinearity)                    3,840     op_f32_f32 
16      15     pad_15 (Pad)                                   0   smul_f32_f32 
17      17     conv2d_17 (Conv2D)                       368,672   smul_f32_f32 
18      19     reduce_19 (Reduce)                         3,840   smul_f32_f32 
19      19     reduce_19_Mul (ScaleBias)                    240   smul_f32_f32 
20      21     eltwise_21 (Eltwise/squared_diff)         19,200     op_f32_f32 
21      23     reduce_22 (Reduce)                         3,840   smul_f32_f32 
22      23     reduce_22_Mul (ScaleBias)                    240   smul_f32_f32 
23      24     nl_24 (Nonlinearity)                       1,440     op_f32_f32 
24      25     eltwise_25 (Eltwise/mul)                     120     op_f32_f32 
25      28     eltwise_28 (Eltwise/mul)                   3,840     op_f32_f32 
26      20     nl_20 (Nonlinearity)                         120     op_f32_f32 
27      26     eltwise_26 (Eltwise/mul)                     120     op_f32_f32 
28      27     eltwise_27 (ScaleBias)                     7,680   smul_f32_f32 
29      29     eltwise_29 (Eltwise/add)                   3,840     op_f32_f32 
30      33     eltwise_33 (Eltwise/add)                   3,840     op_f32_f32 
31      33     nl_33_nl (Nonlinearity)                    3,840     op_f32_f32 
32      34     pad_34 (Pad)                                   0   smul_f32_f32 
33      40     conv2d_37 (Conv2D)                       368,672   smul_f32_f32 
34      41     reduce_41 (Reduce)                         3,840   smul_f32_f32 
35      41     reduce_41_Mul (ScaleBias)                    240   smul_f32_f32 
36      43     eltwise_43 (Eltwise/squared_diff)         19,200     op_f32_f32 
37      45     reduce_44 (Reduce)                         3,840   smul_f32_f32 
38      45     reduce_44_Mul (ScaleBias)                    240   smul_f32_f32 
39      46     nl_46 (Nonlinearity)                       1,440     op_f32_f32 
40      47     eltwise_47 (Eltwise/mul)                     120     op_f32_f32 
41      50     eltwise_50 (Eltwise/mul)                   3,840     op_f32_f32 
42      42     nl_42 (Nonlinearity)                         120     op_f32_f32 
43      48     eltwise_48 (Eltwise/mul)                     120     op_f32_f32 
44      49     eltwise_49 (ScaleBias)                     7,680   smul_f32_f32 
45      51     eltwise_51 (Eltwise/add)                   3,840     op_f32_f32 
46      51     nl_51_nl (Nonlinearity)                    3,840     op_f32_f32 
47      52     pad_52 (Pad)                                   0   smul_f32_f32 
48      58     conv2d_55 (Conv2D)                       368,672   smul_f32_f32 
49      59     reduce_59 (Reduce)                         3,840   smul_f32_f32 
50      59     reduce_59_Mul (ScaleBias)                    240   smul_f32_f32 
51      61     eltwise_61 (Eltwise/squared_diff)         19,200     op_f32_f32 
52      63     reduce_62 (Reduce)                         3,840   smul_f32_f32 
53      63     reduce_62_Mul (ScaleBias)                    240   smul_f32_f32 
54      64     nl_64 (Nonlinearity)                       1,440     op_f32_f32 
55      65     eltwise_65 (Eltwise/mul)                     120     op_f32_f32 
56      68     eltwise_68 (Eltwise/mul)                   3,840     op_f32_f32 
57      60     nl_60 (Nonlinearity)                         120     op_f32_f32 
58      66     eltwise_66 (Eltwise/mul)                     120     op_f32_f32 
59      67     eltwise_67 (ScaleBias)                     7,680   smul_f32_f32 
60      69     eltwise_69 (Eltwise/add)                   3,840     op_f32_f32 
61      70     eltwise_70 (Eltwise/add)                   3,840     op_f32_f32 
62      70     nl_70_nl (Nonlinearity)                    3,840     op_f32_f32 
63      71     pad_71 (Pad)                                   0   smul_f32_f32 
64      77     conv2d_74 (Conv2D)                       368,672   smul_f32_f32 
65      78     reduce_78 (Reduce)                         3,840   smul_f32_f32 
66      78     reduce_78_Mul (ScaleBias)                    240   smul_f32_f32 
67      80     eltwise_80 (Eltwise/squared_diff)         19,200     op_f32_f32 
68      82     reduce_81 (Reduce)                         3,840   smul_f32_f32 
69      82     reduce_81_Mul (ScaleBias)                    240   smul_f32_f32 
70      83     nl_83 (Nonlinearity)                       1,440     op_f32_f32 
71      84     eltwise_84 (Eltwise/mul)                     120     op_f32_f32 
72      87     eltwise_87 (Eltwise/mul)                   3,840     op_f32_f32 
73      79     nl_79 (Nonlinearity)                         120     op_f32_f32 
74      85     eltwise_85 (Eltwise/mul)                     120     op_f32_f32 
75      86     eltwise_86 (ScaleBias)                     7,680   smul_f32_f32 
76      88     eltwise_88 (Eltwise/add)                   3,840     op_f32_f32 
77      88     nl_88_nl (Nonlinearity)                    3,840     op_f32_f32 
78      89     pad_89 (Pad)                                   0   smul_f32_f32 
79      95     conv2d_92 (Conv2D)                       368,672   smul_f32_f32 
80      96     reduce_96 (Reduce)                         3,840   smul_f32_f32 
81      96     reduce_96_Mul (ScaleBias)                    240   smul_f32_f32 
82      98     eltwise_98 (Eltwise/squared_diff)         19,200     op_f32_f32 
83      100    reduce_99 (Reduce)                         3,840   smul_f32_f32 
84      100    reduce_99_Mul (ScaleBias)                    240   smul_f32_f32 
85      101    nl_101 (Nonlinearity)                      1,440     op_f32_f32 
86      102    eltwise_102 (Eltwise/mul)                    120     op_f32_f32 
87      105    eltwise_105 (Eltwise/mul)                  3,840     op_f32_f32 
88      97     nl_97 (Nonlinearity)                         120     op_f32_f32 
89      103    eltwise_103 (Eltwise/mul)                    120     op_f32_f32 
90      104    eltwise_104 (ScaleBias)                    7,680   smul_f32_f32 
91      106    eltwise_106 (Eltwise/add)                  3,840     op_f32_f32 
92      107    eltwise_107 (Eltwise/add)                  3,840     op_f32_f32 
93      107    nl_107_nl (Nonlinearity)                   3,840     op_f32_f32 
94      108    pad_108 (Pad)                                  0   smul_f32_f32 
95      114    conv2d_111 (Conv2D)                      368,672   smul_f32_f32 
96      115    reduce_115 (Reduce)                        3,840   smul_f32_f32 
97      115    reduce_115_Mul (ScaleBias)                   240   smul_f32_f32 
98      117    eltwise_117 (Eltwise/squared_diff)        19,200     op_f32_f32 
99      119    reduce_118 (Reduce)                        3,840   smul_f32_f32 
100     119    reduce_118_Mul (ScaleBias)                   240   smul_f32_f32 
101     120    nl_120 (Nonlinearity)                      1,440     op_f32_f32 
102     121    eltwise_121 (Eltwise/mul)                    120     op_f32_f32 
103     124    eltwise_124 (Eltwise/mul)                  3,840     op_f32_f32 
104     116    nl_116 (Nonlinearity)                        120     op_f32_f32 
105     122    eltwise_122 (Eltwise/mul)                    120     op_f32_f32 
106     123    eltwise_123 (ScaleBias)                    7,680   smul_f32_f32 
107     125    eltwise_125 (Eltwise/add)                  3,840     op_f32_f32 
108     125    nl_125_nl (Nonlinearity)                   3,840     op_f32_f32 
109     126    pad_126 (Pad)                                  0   smul_f32_f32 
110     132    conv2d_129 (Conv2D)                      368,672   smul_f32_f32 
111     133    reduce_133 (Reduce)                        3,840   smul_f32_f32 
112     133    reduce_133_Mul (ScaleBias)                   240   smul_f32_f32 
113     135    eltwise_135 (Eltwise/squared_diff)        19,200     op_f32_f32 
114     137    reduce_136 (Reduce)                        3,840   smul_f32_f32 
115     137    reduce_136_Mul (ScaleBias)                   240   smul_f32_f32 
116     138    nl_138 (Nonlinearity)                      1,440     op_f32_f32 
117     139    eltwise_139 (Eltwise/mul)                    120     op_f32_f32 
118     142    eltwise_142 (Eltwise/mul)                  3,840     op_f32_f32 
119     134    nl_134 (Nonlinearity)                        120     op_f32_f32 
120     140    eltwise_140 (Eltwise/mul)                    120     op_f32_f32 
121     141    eltwise_141 (ScaleBias)                    7,680   smul_f32_f32 
122     143    eltwise_143 (Eltwise/add)                  3,840     op_f32_f32 
123     144    eltwise_144 (Eltwise/add)                  3,840     op_f32_f32 
124     144    nl_144_nl (Nonlinearity)                   3,840     op_f32_f32 
125     145    pad_145 (Pad)                                  0   smul_f32_f32 
126     151    conv2d_148 (Conv2D)                      368,672   smul_f32_f32 
127     152    reduce_152 (Reduce)                        3,840   smul_f32_f32 
128     152    reduce_152_Mul (ScaleBias)                   240   smul_f32_f32 
129     154    eltwise_154 (Eltwise/squared_diff)        19,200     op_f32_f32 
130     156    reduce_155 (Reduce)                        3,840   smul_f32_f32 
131     156    reduce_155_Mul (ScaleBias)                   240   smul_f32_f32 
132     157    nl_157 (Nonlinearity)                      1,440     op_f32_f32 
133     158    eltwise_158 (Eltwise/mul)                    120     op_f32_f32 
134     161    eltwise_161 (Eltwise/mul)                  3,840     op_f32_f32 
135     153    nl_153 (Nonlinearity)                        120     op_f32_f32 
136     159    eltwise_159 (Eltwise/mul)                    120     op_f32_f32 
137     160    eltwise_160 (ScaleBias)                    7,680   smul_f32_f32 
138     162    eltwise_162 (Eltwise/add)                  3,840     op_f32_f32 
139     162    nl_162_nl (Nonlinearity)                   3,840     op_f32_f32 
140     163    pad_163 (Pad)                                  0   smul_f32_f32 
141     169    conv2d_166 (Conv2D)                      368,672   smul_f32_f32 
142     170    reduce_170 (Reduce)                        3,840   smul_f32_f32 
143     170    reduce_170_Mul (ScaleBias)                   240   smul_f32_f32 
144     172    eltwise_172 (Eltwise/squared_diff)        19,200     op_f32_f32 
145     174    reduce_173 (Reduce)                        3,840   smul_f32_f32 
146     174    reduce_173_Mul (ScaleBias)                   240   smul_f32_f32 
147     175    nl_175 (Nonlinearity)                      1,440     op_f32_f32 
148     176    eltwise_176 (Eltwise/mul)                    120     op_f32_f32 
149     179    eltwise_179 (Eltwise/mul)                  3,840     op_f32_f32 
150     171    nl_171 (Nonlinearity)                        120     op_f32_f32 
151     177    eltwise_177 (Eltwise/mul)                    120     op_f32_f32 
152     178    eltwise_178 (ScaleBias)                    7,680   smul_f32_f32 
153     180    eltwise_180 (Eltwise/add)                  3,840     op_f32_f32 
154     181    eltwise_181 (Eltwise/add)                  3,840     op_f32_f32 
155     181    nl_181_nl (Nonlinearity)                   3,840     op_f32_f32 
156     182    pad_182 (Pad)                                  0   smul_f32_f32 
157     188    conv2d_185 (Conv2D)                      368,672   smul_f32_f32 
158     189    reduce_189 (Reduce)                        3,840   smul_f32_f32 
159     189    reduce_189_Mul (ScaleBias)                   240   smul_f32_f32 
160     191    eltwise_191 (Eltwise/squared_diff)        19,200     op_f32_f32 
161     193    reduce_192 (Reduce)                        3,840   smul_f32_f32 
162     193    reduce_192_Mul (ScaleBias)                   240   smul_f32_f32 
163     194    nl_194 (Nonlinearity)                      1,440     op_f32_f32 
164     195    eltwise_195 (Eltwise/mul)                    120     op_f32_f32 
165     198    eltwise_198 (Eltwise/mul)                  3,840     op_f32_f32 
166     190    nl_190 (Nonlinearity)                        120     op_f32_f32 
167     196    eltwise_196 (Eltwise/mul)                    120     op_f32_f32 
168     197    eltwise_197 (ScaleBias)                    7,680   smul_f32_f32 
169     199    eltwise_199 (Eltwise/add)                  3,840     op_f32_f32 
170     199    nl_199_nl (Nonlinearity)                   3,840     op_f32_f32 
171     200    pad_200 (Pad)                                  0   smul_f32_f32 
172     206    conv2d_203 (Conv2D)                      368,672   smul_f32_f32 
173     207    reduce_207 (Reduce)                        3,840   smul_f32_f32 
174     207    reduce_207_Mul (ScaleBias)                   240   smul_f32_f32 
175     209    eltwise_209 (Eltwise/squared_diff)        19,200     op_f32_f32 
176     211    reduce_210 (Reduce)                        3,840   smul_f32_f32 
177     211    reduce_210_Mul (ScaleBias)                   240   smul_f32_f32 
178     212    nl_212 (Nonlinearity)                      1,440     op_f32_f32 
179     213    eltwise_213 (Eltwise/mul)                    120     op_f32_f32 
180     216    eltwise_216 (Eltwise/mul)                  3,840     op_f32_f32 
181     208    nl_208 (Nonlinearity)                        120     op_f32_f32 
182     214    eltwise_214 (Eltwise/mul)                    120     op_f32_f32 
183     215    eltwise_215 (ScaleBias)                    7,680   smul_f32_f32 
184     217    eltwise_217 (Eltwise/add)                  3,840     op_f32_f32 
185     218    eltwise_218 (Eltwise/add)                  3,840     op_f32_f32 
186     218    nl_218_nl (Nonlinearity)                   3,840     op_f32_f32 
187     219    slice_219_gather_0 (Gather)                    0   smul_f32_s32 
188     220    gemm_220 (Dense)                           2,112   smul_f32_f32 
189     220    nl_220_nl (Nonlinearity)                      64     op_f32_f32 
190     221    gemm_221 (Dense)                           2,080   smul_f32_f32 
191     221    nl_221_nl (Nonlinearity)                      32     op_f32_f32 
192     222    gemm_222 (Dense)                              33   smul_f32_f32 
------- ------ ------------------------------------ ----------- -------------- 
total                                                 4,678,497 

Number of operation types
---------------- ----------- ----------- 
operation type             #           % 
---------------- ----------- ----------- 
smul_f32_f32       4,265,121       91.2% 
op_f32_f32           413,376        8.8% 
smul_f32_s32               0        0.0% 

Complexity report (model)
------ ------------------------------------------ ------------------------- ------------------------- ------------ 
m_id   name                                       c_macc                    c_rom                     c_id         
------ ------------------------------------------ ------------------------- ------------------------- ------------ 
0      serving_default_sequence_input0            |                  0.0%   |                  0.0%   [1]          
2      conv2d_2                                   |                  0.2%   |                  0.3%   [2]          
4      reduce_4                                   |                  0.1%   |                  0.0%   [3, 4]       
5      nl_5                                       |                  0.0%   |                  0.0%   [11]         
6      eltwise_6                                  |                  0.4%   |                  0.0%   [5]          
8      arith_constant21                           |                  0.1%   |                  0.0%   [6, 7]       
9      nl_9                                       |                  0.0%   |                  0.0%   [8]          
10     functional_1_layer_normaliza.._1_Reshape   |                  0.0%   |                  0.1%   [9]          
11     eltwise_11                                 |                  0.0%   |                  0.0%   [12]         
12     functional_1_layer_normaliza.._Reshape_1   |                  0.2%   |                  0.2%   [13]         
13     eltwise_13                                 |                  0.1%   |                  0.0%   [10]         
14     eltwise_14                                 |                  0.2%   |                  0.0%   [14, 15]     
15     pad_15                                     |                  0.0%   |                  0.0%   [16]         
17     conv2d_17                                  ||||||||||||||||   7.9%   ||||||||||||||||   7.9%   [17]         
19     reduce_19                                  |                  0.1%   |                  0.0%   [18, 19]     
20     nl_20                                      |                  0.0%   |                  0.0%   [26]         
21     eltwise_21                                 |                  0.4%   |                  0.0%   [20]         
23     eltwise_23                                 |                  0.1%   |                  0.0%   [21, 22]     
24     nl_24                                      |                  0.0%   |                  0.0%   [23]         
25     functional_1_layer_normaliza.._2_Reshape   |                  0.0%   |                  0.1%   [24]         
26     eltwise_26                                 |                  0.0%   |                  0.0%   [27]         
27     functional_1_layer_normaliza.._Reshape_1   |                  0.2%   |                  0.2%   [28]         
28     eltwise_28                                 |                  0.1%   |                  0.0%   [25]         
29     eltwise_29                                 |                  0.1%   |                  0.0%   [29]         
31     conv2d_31                                  |                  0.1%   |                  0.2%   [0]          
33     eltwise_33                                 |                  0.2%   |                  0.0%   [30, 31]     
34     pad_34                                     |                  0.0%   |                  0.0%   [32]         
40     functional_1_conv1d_3_1_Squeeze            ||||||||||||||||   7.9%   ||||||||||||||||   7.9%   [33]         
41     reduce_41                                  |                  0.1%   |                  0.0%   [34, 35]     
42     nl_42                                      |                  0.0%   |                  0.0%   [42]         
43     eltwise_43                                 |                  0.4%   |                  0.0%   [36]         
45     eltwise_45                                 |                  0.1%   |                  0.0%   [37, 38]     
46     nl_46                                      |                  0.0%   |                  0.0%   [39]         
47     functional_1_layer_normaliza.._1_Reshape   |                  0.0%   |                  0.1%   [40]         
48     eltwise_48                                 |                  0.0%   |                  0.0%   [43]         
49     functional_1_layer_normaliza.._Reshape_1   |                  0.2%   |                  0.2%   [44]         
50     eltwise_50                                 |                  0.1%   |                  0.0%   [41]         
51     eltwise_51                                 |                  0.2%   |                  0.0%   [45, 46]     
52     pad_52                                     |                  0.0%   |                  0.0%   [47]         
58     functional_1_conv1d_4_1_Squeeze            ||||||||||||||||   7.9%   ||||||||||||||||   7.9%   [48]         
59     reduce_59                                  |                  0.1%   |                  0.0%   [49, 50]     
60     nl_60                                      |                  0.0%   |                  0.0%   [57]         
61     eltwise_61                                 |                  0.4%   |                  0.0%   [51]         
63     eltwise_63                                 |                  0.1%   |                  0.0%   [52, 53]     
64     nl_64                                      |                  0.0%   |                  0.0%   [54]         
65     functional_1_layer_normaliza.._1_Reshape   |                  0.0%   |                  0.1%   [55]         
66     eltwise_66                                 |                  0.0%   |                  0.0%   [58]         
67     functional_1_layer_normaliza.._Reshape_1   |                  0.2%   |                  0.2%   [59]         
68     eltwise_68                                 |                  0.1%   |                  0.0%   [56]         
69     eltwise_69                                 |                  0.1%   |                  0.0%   [60]         
70     eltwise_70                                 |                  0.2%   |                  0.0%   [61, 62]     
71     pad_71                                     |                  0.0%   |                  0.0%   [63]         
77     functional_1_conv1d_5_1_Squeeze            ||||||||||||||||   7.9%   ||||||||||||||||   7.9%   [64]         
78     reduce_78                                  |                  0.1%   |                  0.0%   [65, 66]     
79     nl_79                                      |                  0.0%   |                  0.0%   [73]         
80     eltwise_80                                 |                  0.4%   |                  0.0%   [67]         
82     eltwise_82                                 |                  0.1%   |                  0.0%   [68, 69]     
83     nl_83                                      |                  0.0%   |                  0.0%   [70]         
84     functional_1_layer_normaliza.._1_Reshape   |                  0.0%   |                  0.1%   [71]         
85     eltwise_85                                 |                  0.0%   |                  0.0%   [74]         
86     functional_1_layer_normaliza.._Reshape_1   |                  0.2%   |                  0.2%   [75]         
87     eltwise_87                                 |                  0.1%   |                  0.0%   [72]         
88     eltwise_88                                 |                  0.2%   |                  0.0%   [76, 77]     
89     pad_89                                     |                  0.0%   |                  0.0%   [78]         
95     functional_1_conv1d_6_1_Squeeze            ||||||||||||||||   7.9%   ||||||||||||||||   7.9%   [79]         
96     reduce_96                                  |                  0.1%   |                  0.0%   [80, 81]     
97     nl_97                                      |                  0.0%   |                  0.0%   [88]         
98     eltwise_98                                 |                  0.4%   |                  0.0%   [82]         
100    eltwise_100                                |                  0.1%   |                  0.0%   [83, 84]     
101    nl_101                                     |                  0.0%   |                  0.0%   [85]         
102    functional_1_layer_normaliza.._1_Reshape   |                  0.0%   |                  0.1%   [86]         
103    eltwise_103                                |                  0.0%   |                  0.0%   [89]         
104    functional_1_layer_normaliza.._Reshape_1   |                  0.2%   |                  0.2%   [90]         
105    eltwise_105                                |                  0.1%   |                  0.0%   [87]         
106    eltwise_106                                |                  0.1%   |                  0.0%   [91]         
107    eltwise_107                                |                  0.2%   |                  0.0%   [92, 93]     
108    pad_108                                    |                  0.0%   |                  0.0%   [94]         
114    functional_1_conv1d_7_1_Squeeze            ||||||||||||||||   7.9%   ||||||||||||||||   7.9%   [95]         
115    reduce_115                                 |                  0.1%   |                  0.0%   [96, 97]     
116    nl_116                                     |                  0.0%   |                  0.0%   [104]        
117    eltwise_117                                |                  0.4%   |                  0.0%   [98]         
119    eltwise_119                                |                  0.1%   |                  0.0%   [99, 100]    
120    nl_120                                     |                  0.0%   |                  0.0%   [101]        
121    functional_1_layer_normaliza.._1_Reshape   |                  0.0%   |                  0.1%   [102]        
122    eltwise_122                                |                  0.0%   |                  0.0%   [105]        
123    functional_1_layer_normaliza.._Reshape_1   |                  0.2%   |                  0.2%   [106]        
124    eltwise_124                                |                  0.1%   |                  0.0%   [103]        
125    eltwise_125                                |                  0.2%   |                  0.0%   [107, 108]   
126    pad_126                                    |                  0.0%   |                  0.0%   [109]        
132    functional_1_conv1d_8_1_Squeeze            ||||||||||||||||   7.9%   ||||||||||||||||   7.9%   [110]        
133    reduce_133                                 |                  0.1%   |                  0.0%   [111, 112]   
134    nl_134                                     |                  0.0%   |                  0.0%   [119]        
135    eltwise_135                                |                  0.4%   |                  0.0%   [113]        
137    eltwise_137                                |                  0.1%   |                  0.0%   [114, 115]   
138    nl_138                                     |                  0.0%   |                  0.0%   [116]        
139    functional_1_layer_normaliza.._1_Reshape   |                  0.0%   |                  0.1%   [117]        
140    eltwise_140                                |                  0.0%   |                  0.0%   [120]        
141    functional_1_layer_normaliza.._Reshape_1   |                  0.2%   |                  0.2%   [121]        
142    eltwise_142                                |                  0.1%   |                  0.0%   [118]        
143    eltwise_143                                |                  0.1%   |                  0.0%   [122]        
144    eltwise_144                                |                  0.2%   |                  0.0%   [123, 124]   
145    pad_145                                    |                  0.0%   |                  0.0%   [125]        
151    functional_1_conv1d_9_1_Squeeze            ||||||||||||||||   7.9%   ||||||||||||||||   7.9%   [126]        
152    reduce_152                                 |                  0.1%   |                  0.0%   [127, 128]   
153    nl_153                                     |                  0.0%   |                  0.0%   [135]        
154    eltwise_154                                |                  0.4%   |                  0.0%   [129]        
156    eltwise_156                                |                  0.1%   |                  0.0%   [130, 131]   
157    nl_157                                     |                  0.0%   |                  0.0%   [132]        
158    functional_1_layer_normaliza.._1_Reshape   |                  0.0%   |                  0.1%   [133]        
159    eltwise_159                                |                  0.0%   |                  0.0%   [136]        
160    functional_1_layer_normaliza.._Reshape_1   |                  0.2%   |                  0.2%   [137]        
161    eltwise_161                                |                  0.1%   |                  0.0%   [134]        
162    eltwise_162                                |                  0.2%   |                  0.0%   [138, 139]   
163    pad_163                                    |                  0.0%   |                  0.0%   [140]        
169    functional_1_conv1d_10_1_Squeeze           ||||||||||||||||   7.9%   ||||||||||||||||   7.9%   [141]        
170    reduce_170                                 |                  0.1%   |                  0.0%   [142, 143]   
171    nl_171                                     |                  0.0%   |                  0.0%   [150]        
172    eltwise_172                                |                  0.4%   |                  0.0%   [144]        
174    eltwise_174                                |                  0.1%   |                  0.0%   [145, 146]   
175    nl_175                                     |                  0.0%   |                  0.0%   [147]        
176    functional_1_layer_normaliza.._1_Reshape   |                  0.0%   |                  0.1%   [148]        
177    eltwise_177                                |                  0.0%   |                  0.0%   [151]        
178    functional_1_layer_normaliza.._Reshape_1   |                  0.2%   |                  0.2%   [152]        
179    eltwise_179                                |                  0.1%   |                  0.0%   [149]        
180    eltwise_180                                |                  0.1%   |                  0.0%   [153]        
181    eltwise_181                                |                  0.2%   |                  0.0%   [154, 155]   
182    pad_182                                    |                  0.0%   |                  0.0%   [156]        
188    functional_1_conv1d_11_1_Squeeze           ||||||||||||||||   7.9%   ||||||||||||||||   7.9%   [157]        
189    reduce_189                                 |                  0.1%   |                  0.0%   [158, 159]   
190    nl_190                                     |                  0.0%   |                  0.0%   [166]        
191    eltwise_191                                |                  0.4%   |                  0.0%   [160]        
193    eltwise_193                                |                  0.1%   |                  0.0%   [161, 162]   
194    nl_194                                     |                  0.0%   |                  0.0%   [163]        
195    functional_1_layer_normaliza.._1_Reshape   |                  0.0%   |                  0.1%   [164]        
196    eltwise_196                                |                  0.0%   |                  0.0%   [167]        
197    functional_1_layer_normaliza.._Reshape_1   |                  0.2%   |                  0.2%   [168]        
198    eltwise_198                                |                  0.1%   |                  0.0%   [165]        
199    eltwise_199                                |                  0.2%   |                  0.0%   [169, 170]   
200    pad_200                                    |                  0.0%   |                  0.0%   [171]        
206    functional_1_conv1d_12_1_Squeeze           ||||||||||||||||   7.9%   ||||||||||||||||   7.9%   [172]        
207    reduce_207                                 |                  0.1%   |                  0.0%   [173, 174]   
208    nl_208                                     |                  0.0%   |                  0.0%   [181]        
209    eltwise_209                                |                  0.4%   |                  0.0%   [175]        
211    eltwise_211                                |                  0.1%   |                  0.0%   [176, 177]   
212    nl_212                                     |                  0.0%   |                  0.0%   [178]        
213    functional_1_layer_normaliza.._1_Reshape   |                  0.0%   |                  0.1%   [179]        
214    eltwise_214                                |                  0.0%   |                  0.0%   [182]        
215    functional_1_layer_normaliza.._Reshape_1   |                  0.2%   |                  0.2%   [183]        
216    eltwise_216                                |                  0.1%   |                  0.0%   [180]        
217    eltwise_217                                |                  0.1%   |                  0.0%   [184]        
218    eltwise_218                                |                  0.2%   |                  0.0%   [185, 186]   
219    slice_219                                  |                  0.0%   |                  0.0%   [187]        
220    functional_1_dense_1_MatMul                |                  0.0%   |||||||||||        5.4%   [188, 189]   
221    functional_1_dense_1_2_MatMul              |                  0.0%   |||||||||||        5.3%   [190, 191]   
222    functional_1_output_1_MatMul               |                  0.0%   |                  0.1%   [192]        
------ ------------------------------------------ ------------------------- ------------------------- ------------ 
macc=4,678,497 weights=157,460 act=54,400 ram_io=0
 
 Requested memory size by section - "stm32h7" target
 ------------------------------ -------- --------- -------- -------- 
 module                             text    rodata     data      bss 
 ------------------------------ -------- --------- -------- -------- 
 NetworkRuntime1020_CM7_GCC.a     15,684         0        0        0 
 bms_model.o                       4,152     2,264   38,944    1,644 
 bms_model_data.o                     48        16       88        0 
 lib (toolchain)*                      0         0        0        0 
 ------------------------------ -------- --------- -------- -------- 
 RT total**                       19,884     2,280   39,032    1,644 
 ------------------------------ -------- --------- -------- -------- 
 weights                               0   157,464        0        0 
 activations                           0         0        0   54,400 
 io                                    0         0        0        0 
 ------------------------------ -------- --------- -------- -------- 
 TOTAL                            19,884   159,744   39,032   56,044 
 ------------------------------ -------- --------- -------- -------- 
 *  toolchain objects (libm/libgcc*)
 ** RT AI runtime objects (kernels+infrastructure)
  
  Summary - "stm32h7" target
  ---------------------------------------------------
               FLASH (ro)      %*   RAM (rw)       % 
  ---------------------------------------------------
  RT total         61,196   28.0%     40,676   42.8% 
  ---------------------------------------------------
  TOTAL           218,660             95,076         
  ---------------------------------------------------
  *  rt/total


Generated files (7)
-------------------------------------------------------------------- 
C:\Users\22762\.stm32cubemx\network_output\bms_model_data_params.h   
C:\Users\22762\.stm32cubemx\network_output\bms_model_data_params.c   
C:\Users\22762\.stm32cubemx\network_output\bms_model_data.h          
C:\Users\22762\.stm32cubemx\network_output\bms_model_data.c          
C:\Users\22762\.stm32cubemx\network_output\bms_model_config.h        
C:\Users\22762\.stm32cubemx\network_output\bms_model.h               
C:\Users\22762\.stm32cubemx\network_output\bms_model.c               
